name: "ResNet-v2-1001_deploy"
layer {
  name: "data"
  type: "Input"
  top: "data"
  input_param {
    shape {
      dim: 1
      dim: 3
      dim: 32
      dim: 32
    }
  }
}
layer {
  name: "conv1"
  type: "Convolution"
  bottom: "data"
  top: "conv1"
  convolution_param {
    num_output: 16
    bias_term: false
    pad: 1
    kernel_size: 3
    stride: 1
  }
}
layer {
  name: "bn_block2_1_branch2a"
  type: "BatchNorm"
  bottom: "conv1"
  top: "bn_block2_1_branch2a"
}
layer {
  name: "scale_block2_1_branch2a"
  type: "Scale"
  bottom: "bn_block2_1_branch2a"
  top: "bn_block2_1_branch2a"
  scale_param {
    bias_term: true
  }
}
layer {
  name: "relu_block2_1_branch2a"
  type: "ReLU"
  bottom: "bn_block2_1_branch2a"
  top: "bn_block2_1_branch2a"
}
layer {
  name: "conv_block2_1_branch2a"
  type: "Convolution"
  bottom: "bn_block2_1_branch2a"
  top: "conv_block2_1_branch2a"
  convolution_param {
    num_output: 16
    bias_term: false
    pad: 0
    kernel_size: 1
    stride: 1
  }
}
layer {
  name: "bn_block2_1_branch2b"
  type: "BatchNorm"
  bottom: "conv_block2_1_branch2a"
  top: "bn_block2_1_branch2b"
}
layer {
  name: "scale_block2_1_branch2b"
  type: "Scale"
  bottom: "bn_block2_1_branch2b"
  top: "bn_block2_1_branch2b"
  scale_param {
    bias_term: true
  }
}
layer {
  name: "relu_block2_1_branch2b"
  type: "ReLU"
  bottom: "bn_block2_1_branch2b"
  top: "bn_block2_1_branch2b"
}
layer {
  name: "conv_block2_1_branch2b"
  type: "Convolution"
  bottom: "bn_block2_1_branch2b"
  top: "conv_block2_1_branch2b"
  convolution_param {
    num_output: 16
    bias_term: false
    pad: 1
    kernel_size: 3
    stride: 1
  }
}
layer {
  name: "bn_block2_1_branch2c"
  type: "BatchNorm"
  bottom: "conv_block2_1_branch2b"
  top: "bn_block2_1_branch2c"
}
layer {
  name: "scale_block2_1_branch2c"
  type: "Scale"
  bottom: "bn_block2_1_branch2c"
  top: "bn_block2_1_branch2c"
  scale_param {
    bias_term: true
  }
}
layer {
  name: "relu_block2_1_branch2c"
  type: "ReLU"
  bottom: "bn_block2_1_branch2c"
  top: "bn_block2_1_branch2c"
}
layer {
  name: "conv_block2_1_branch2c"
  type: "Convolution"
  bottom: "bn_block2_1_branch2c"
  top: "conv_block2_1_branch2c"
  convolution_param {
    num_output: 64
    bias_term: false
    pad: 0
    kernel_size: 1
    stride: 1
  }
}
layer {
  name: "bn_block2_1_branch1"
  type: "BatchNorm"
  bottom: "conv1"
  top: "bn_block2_1_branch1"
}
layer {
  name: "scale_block2_1_branch1"
  type: "Scale"
  bottom: "bn_block2_1_branch1"
  top: "bn_block2_1_branch1"
  scale_param {
    bias_term: true
  }
}
layer {
  name: "relu_block2_1_branch1"
  type: "ReLU"
  bottom: "bn_block2_1_branch1"
  top: "bn_block2_1_branch1"
}
layer {
  name: "conv_block2_1_branch1"
  type: "Convolution"
  bottom: "bn_block2_1_branch1"
  top: "conv_block2_1_branch1"
  convolution_param {
    num_output: 64
    bias_term: false
    pad: 0
    kernel_size: 1
    stride: 1
  }
}
layer {
  name: "addition_block2_1"
  type: "Eltwise"
  bottom: "conv_block2_1_branch1"
  bottom: "conv_block2_1_branch2c"
  top: "addition_block2_1"
}
layer {
  name: "bn_block2_2_branch2a"
  type: "BatchNorm"
  bottom: "addition_block2_1"
  top: "bn_block2_2_branch2a"
}
layer {
  name: "scale_block2_2_branch2a"
  type: "Scale"
  bottom: "bn_block2_2_branch2a"
  top: "bn_block2_2_branch2a"
  scale_param {
    bias_term: true
  }
}
layer {
  name: "relu_block2_2_branch2a"
  type: "ReLU"
  bottom: "bn_block2_2_branch2a"
  top: "bn_block2_2_branch2a"
}
layer {
  name: "conv_block2_2_branch2a"
  type: "Convolution"
  bottom: "bn_block2_2_branch2a"
  top: "conv_block2_2_branch2a"
  convolution_param {
    num_output: 16
    bias_term: false
    pad: 0
    kernel_size: 1
    stride: 1
  }
}
layer {
  name: "bn_block2_2_branch2b"
  type: "BatchNorm"
  bottom: "conv_block2_2_branch2a"
  top: "bn_block2_2_branch2b"
}
layer {
  name: "scale_block2_2_branch2b"
  type: "Scale"
  bottom: "bn_block2_2_branch2b"
  top: "bn_block2_2_branch2b"
  scale_param {
    bias_term: true
  }
}
layer {
  name: "relu_block2_2_branch2b"
  type: "ReLU"
  bottom: "bn_block2_2_branch2b"
  top: "bn_block2_2_branch2b"
}
layer {
  name: "conv_block2_2_branch2b"
  type: "Convolution"
  bottom: "bn_block2_2_branch2b"
  top: "conv_block2_2_branch2b"
  convolution_param {
    num_output: 16
    bias_term: false
    pad: 1
    kernel_size: 3
    stride: 1
  }
}
layer {
  name: "bn_block2_2_branch2c"
  type: "BatchNorm"
  bottom: "conv_block2_2_branch2b"
  top: "bn_block2_2_branch2c"
}
layer {
  name: "scale_block2_2_branch2c"
  type: "Scale"
  bottom: "bn_block2_2_branch2c"
  top: "bn_block2_2_branch2c"
  scale_param {
    bias_term: true
  }
}
layer {
  name: "relu_block2_2_branch2c"
  type: "ReLU"
  bottom: "bn_block2_2_branch2c"
  top: "bn_block2_2_branch2c"
}
layer {
  name: "conv_block2_2_branch2c"
  type: "Convolution"
  bottom: "bn_block2_2_branch2c"
  top: "conv_block2_2_branch2c"
  convolution_param {
    num_output: 64
    bias_term: false
    pad: 0
    kernel_size: 1
    stride: 1
  }
}
layer {
  name: "addition_block2_2"
  type: "Eltwise"
  bottom: "addition_block2_1"
  bottom: "conv_block2_2_branch2c"
  top: "addition_block2_2"
}
layer {
  name: "bn_block2_3_branch2a"
  type: "BatchNorm"
  bottom: "addition_block2_2"
  top: "bn_block2_3_branch2a"
}
layer {
  name: "scale_block2_3_branch2a"
  type: "Scale"
  bottom: "bn_block2_3_branch2a"
  top: "bn_block2_3_branch2a"
  scale_param {
    bias_term: true
  }
}
layer {
  name: "relu_block2_3_branch2a"
  type: "ReLU"
  bottom: "bn_block2_3_branch2a"
  top: "bn_block2_3_branch2a"
}
layer {
  name: "conv_block2_3_branch2a"
  type: "Convolution"
  bottom: "bn_block2_3_branch2a"
  top: "conv_block2_3_branch2a"
  convolution_param {
    num_output: 16
    bias_term: false
    pad: 0
    kernel_size: 1
    stride: 1
  }
}
layer {
  name: "bn_block2_3_branch2b"
  type: "BatchNorm"
  bottom: "conv_block2_3_branch2a"
  top: "bn_block2_3_branch2b"
}
layer {
  name: "scale_block2_3_branch2b"
  type: "Scale"
  bottom: "bn_block2_3_branch2b"
  top: "bn_block2_3_branch2b"
  scale_param {
    bias_term: true
  }
}
layer {
  name: "relu_block2_3_branch2b"
  type: "ReLU"
  bottom: "bn_block2_3_branch2b"
  top: "bn_block2_3_branch2b"
}
layer {
  name: "conv_block2_3_branch2b"
  type: "Convolution"
  bottom: "bn_block2_3_branch2b"
  top: "conv_block2_3_branch2b"
  convolution_param {
    num_output: 16
    bias_term: false
    pad: 1
    kernel_size: 3
    stride: 1
  }
}
layer {
  name: "bn_block2_3_branch2c"
  type: "BatchNorm"
  bottom: "conv_block2_3_branch2b"
  top: "bn_block2_3_branch2c"
}
layer {
  name: "scale_block2_3_branch2c"
  type: "Scale"
  bottom: "bn_block2_3_branch2c"
  top: "bn_block2_3_branch2c"
  scale_param {
    bias_term: true
  }
}
layer {
  name: "relu_block2_3_branch2c"
  type: "ReLU"
  bottom: "bn_block2_3_branch2c"
  top: "bn_block2_3_branch2c"
}
layer {
  name: "conv_block2_3_branch2c"
  type: "Convolution"
  bottom: "bn_block2_3_branch2c"
  top: "conv_block2_3_branch2c"
  convolution_param {
    num_output: 64
    bias_term: false
    pad: 0
    kernel_size: 1
    stride: 1
  }
}
layer {
  name: "addition_block2_3"
  type: "Eltwise"
  bottom: "addition_block2_2"
  bottom: "conv_block2_3_branch2c"
  top: "addition_block2_3"
}
layer {
  name: "bn_block2_4_branch2a"
  type: "BatchNorm"
  bottom: "addition_block2_3"
  top: "bn_block2_4_branch2a"
}
layer {
  name: "scale_block2_4_branch2a"
  type: "Scale"
  bottom: "bn_block2_4_branch2a"
  top: "bn_block2_4_branch2a"
  scale_param {
    bias_term: true
  }
}
layer {
  name: "relu_block2_4_branch2a"
  type: "ReLU"
  bottom: "bn_block2_4_branch2a"
  top: "bn_block2_4_branch2a"
}
layer {
  name: "conv_block2_4_branch2a"
  type: "Convolution"
  bottom: "bn_block2_4_branch2a"
  top: "conv_block2_4_branch2a"
  convolution_param {
    num_output: 16
    bias_term: false
    pad: 0
    kernel_size: 1
    stride: 1
  }
}
layer {
  name: "bn_block2_4_branch2b"
  type: "BatchNorm"
  bottom: "conv_block2_4_branch2a"
  top: "bn_block2_4_branch2b"
}
layer {
  name: "scale_block2_4_branch2b"
  type: "Scale"
  bottom: "bn_block2_4_branch2b"
  top: "bn_block2_4_branch2b"
  scale_param {
    bias_term: true
  }
}
layer {
  name: "relu_block2_4_branch2b"
  type: "ReLU"
  bottom: "bn_block2_4_branch2b"
  top: "bn_block2_4_branch2b"
}
layer {
  name: "conv_block2_4_branch2b"
  type: "Convolution"
  bottom: "bn_block2_4_branch2b"
  top: "conv_block2_4_branch2b"
  convolution_param {
    num_output: 16
    bias_term: false
    pad: 1
    kernel_size: 3
    stride: 1
  }
}
layer {
  name: "bn_block2_4_branch2c"
  type: "BatchNorm"
  bottom: "conv_block2_4_branch2b"
  top: "bn_block2_4_branch2c"
}
layer {
  name: "scale_block2_4_branch2c"
  type: "Scale"
  bottom: "bn_block2_4_branch2c"
  top: "bn_block2_4_branch2c"
  scale_param {
    bias_term: true
  }
}
layer {
  name: "relu_block2_4_branch2c"
  type: "ReLU"
  bottom: "bn_block2_4_branch2c"
  top: "bn_block2_4_branch2c"
}
layer {
  name: "conv_block2_4_branch2c"
  type: "Convolution"
  bottom: "bn_block2_4_branch2c"
  top: "conv_block2_4_branch2c"
  convolution_param {
    num_output: 64
    bias_term: false
    pad: 0
    kernel_size: 1
    stride: 1
  }
}
layer {
  name: "addition_block2_4"
  type: "Eltwise"
  bottom: "addition_block2_3"
  bottom: "conv_block2_4_branch2c"
  top: "addition_block2_4"
}
layer {
  name: "bn_block2_5_branch2a"
  type: "BatchNorm"
  bottom: "addition_block2_4"
  top: "bn_block2_5_branch2a"
}
layer {
  name: "scale_block2_5_branch2a"
  type: "Scale"
  bottom: "bn_block2_5_branch2a"
  top: "bn_block2_5_branch2a"
  scale_param {
    bias_term: true
  }
}
layer {
  name: "relu_block2_5_branch2a"
  type: "ReLU"
  bottom: "bn_block2_5_branch2a"
  top: "bn_block2_5_branch2a"
}
layer {
  name: "conv_block2_5_branch2a"
  type: "Convolution"
  bottom: "bn_block2_5_branch2a"
  top: "conv_block2_5_branch2a"
  convolution_param {
    num_output: 16
    bias_term: false
    pad: 0
    kernel_size: 1
    stride: 1
  }
}
layer {
  name: "bn_block2_5_branch2b"
  type: "BatchNorm"
  bottom: "conv_block2_5_branch2a"
  top: "bn_block2_5_branch2b"
}
layer {
  name: "scale_block2_5_branch2b"
  type: "Scale"
  bottom: "bn_block2_5_branch2b"
  top: "bn_block2_5_branch2b"
  scale_param {
    bias_term: true
  }
}
layer {
  name: "relu_block2_5_branch2b"
  type: "ReLU"
  bottom: "bn_block2_5_branch2b"
  top: "bn_block2_5_branch2b"
}
layer {
  name: "conv_block2_5_branch2b"
  type: "Convolution"
  bottom: "bn_block2_5_branch2b"
  top: "conv_block2_5_branch2b"
  convolution_param {
    num_output: 16
    bias_term: false
    pad: 1
    kernel_size: 3
    stride: 1
  }
}
layer {
  name: "bn_block2_5_branch2c"
  type: "BatchNorm"
  bottom: "conv_block2_5_branch2b"
  top: "bn_block2_5_branch2c"
}
layer {
  name: "scale_block2_5_branch2c"
  type: "Scale"
  bottom: "bn_block2_5_branch2c"
  top: "bn_block2_5_branch2c"
  scale_param {
    bias_term: true
  }
}
layer {
  name: "relu_block2_5_branch2c"
  type: "ReLU"
  bottom: "bn_block2_5_branch2c"
  top: "bn_block2_5_branch2c"
}
layer {
  name: "conv_block2_5_branch2c"
  type: "Convolution"
  bottom: "bn_block2_5_branch2c"
  top: "conv_block2_5_branch2c"
  convolution_param {
    num_output: 64
    bias_term: false
    pad: 0
    kernel_size: 1
    stride: 1
  }
}
layer {
  name: "addition_block2_5"
  type: "Eltwise"
  bottom: "addition_block2_4"
  bottom: "conv_block2_5_branch2c"
  top: "addition_block2_5"
}
layer {
  name: "bn_block2_6_branch2a"
  type: "BatchNorm"
  bottom: "addition_block2_5"
  top: "bn_block2_6_branch2a"
}
layer {
  name: "scale_block2_6_branch2a"
  type: "Scale"
  bottom: "bn_block2_6_branch2a"
  top: "bn_block2_6_branch2a"
  scale_param {
    bias_term: true
  }
}
layer {
  name: "relu_block2_6_branch2a"
  type: "ReLU"
  bottom: "bn_block2_6_branch2a"
  top: "bn_block2_6_branch2a"
}
layer {
  name: "conv_block2_6_branch2a"
  type: "Convolution"
  bottom: "bn_block2_6_branch2a"
  top: "conv_block2_6_branch2a"
  convolution_param {
    num_output: 16
    bias_term: false
    pad: 0
    kernel_size: 1
    stride: 1
  }
}
layer {
  name: "bn_block2_6_branch2b"
  type: "BatchNorm"
  bottom: "conv_block2_6_branch2a"
  top: "bn_block2_6_branch2b"
}
layer {
  name: "scale_block2_6_branch2b"
  type: "Scale"
  bottom: "bn_block2_6_branch2b"
  top: "bn_block2_6_branch2b"
  scale_param {
    bias_term: true
  }
}
layer {
  name: "relu_block2_6_branch2b"
  type: "ReLU"
  bottom: "bn_block2_6_branch2b"
  top: "bn_block2_6_branch2b"
}
layer {
  name: "conv_block2_6_branch2b"
  type: "Convolution"
  bottom: "bn_block2_6_branch2b"
  top: "conv_block2_6_branch2b"
  convolution_param {
    num_output: 16
    bias_term: false
    pad: 1
    kernel_size: 3
    stride: 1
  }
}
layer {
  name: "bn_block2_6_branch2c"
  type: "BatchNorm"
  bottom: "conv_block2_6_branch2b"
  top: "bn_block2_6_branch2c"
}
layer {
  name: "scale_block2_6_branch2c"
  type: "Scale"
  bottom: "bn_block2_6_branch2c"
  top: "bn_block2_6_branch2c"
  scale_param {
    bias_term: true
  }
}
layer {
  name: "relu_block2_6_branch2c"
  type: "ReLU"
  bottom: "bn_block2_6_branch2c"
  top: "bn_block2_6_branch2c"
}
layer {
  name: "conv_block2_6_branch2c"
  type: "Convolution"
  bottom: "bn_block2_6_branch2c"
  top: "conv_block2_6_branch2c"
  convolution_param {
    num_output: 64
    bias_term: false
    pad: 0
    kernel_size: 1
    stride: 1
  }
}
layer {
  name: "addition_block2_6"
  type: "Eltwise"
  bottom: "addition_block2_5"
  bottom: "conv_block2_6_branch2c"
  top: "addition_block2_6"
}
layer {
  name: "bn_block2_7_branch2a"
  type: "BatchNorm"
  bottom: "addition_block2_6"
  top: "bn_block2_7_branch2a"
}
layer {
  name: "scale_block2_7_branch2a"
  type: "Scale"
  bottom: "bn_block2_7_branch2a"
  top: "bn_block2_7_branch2a"
  scale_param {
    bias_term: true
  }
}
layer {
  name: "relu_block2_7_branch2a"
  type: "ReLU"
  bottom: "bn_block2_7_branch2a"
  top: "bn_block2_7_branch2a"
}
layer {
  name: "conv_block2_7_branch2a"
  type: "Convolution"
  bottom: "bn_block2_7_branch2a"
  top: "conv_block2_7_branch2a"
  convolution_param {
    num_output: 16
    bias_term: false
    pad: 0
    kernel_size: 1
    stride: 1
  }
}
layer {
  name: "bn_block2_7_branch2b"
  type: "BatchNorm"
  bottom: "conv_block2_7_branch2a"
  top: "bn_block2_7_branch2b"
}
layer {
  name: "scale_block2_7_branch2b"
  type: "Scale"
  bottom: "bn_block2_7_branch2b"
  top: "bn_block2_7_branch2b"
  scale_param {
    bias_term: true
  }
}
layer {
  name: "relu_block2_7_branch2b"
  type: "ReLU"
  bottom: "bn_block2_7_branch2b"
  top: "bn_block2_7_branch2b"
}
layer {
  name: "conv_block2_7_branch2b"
  type: "Convolution"
  bottom: "bn_block2_7_branch2b"
  top: "conv_block2_7_branch2b"
  convolution_param {
    num_output: 16
    bias_term: false
    pad: 1
    kernel_size: 3
    stride: 1
  }
}
layer {
  name: "bn_block2_7_branch2c"
  type: "BatchNorm"
  bottom: "conv_block2_7_branch2b"
  top: "bn_block2_7_branch2c"
}
layer {
  name: "scale_block2_7_branch2c"
  type: "Scale"
  bottom: "bn_block2_7_branch2c"
  top: "bn_block2_7_branch2c"
  scale_param {
    bias_term: true
  }
}
layer {
  name: "relu_block2_7_branch2c"
  type: "ReLU"
  bottom: "bn_block2_7_branch2c"
  top: "bn_block2_7_branch2c"
}
layer {
  name: "conv_block2_7_branch2c"
  type: "Convolution"
  bottom: "bn_block2_7_branch2c"
  top: "conv_block2_7_branch2c"
  convolution_param {
    num_output: 64
    bias_term: false
    pad: 0
    kernel_size: 1
    stride: 1
  }
}
layer {
  name: "addition_block2_7"
  type: "Eltwise"
  bottom: "addition_block2_6"
  bottom: "conv_block2_7_branch2c"
  top: "addition_block2_7"
}
layer {
  name: "bn_block2_8_branch2a"
  type: "BatchNorm"
  bottom: "addition_block2_7"
  top: "bn_block2_8_branch2a"
}
layer {
  name: "scale_block2_8_branch2a"
  type: "Scale"
  bottom: "bn_block2_8_branch2a"
  top: "bn_block2_8_branch2a"
  scale_param {
    bias_term: true
  }
}
layer {
  name: "relu_block2_8_branch2a"
  type: "ReLU"
  bottom: "bn_block2_8_branch2a"
  top: "bn_block2_8_branch2a"
}
layer {
  name: "conv_block2_8_branch2a"
  type: "Convolution"
  bottom: "bn_block2_8_branch2a"
  top: "conv_block2_8_branch2a"
  convolution_param {
    num_output: 16
    bias_term: false
    pad: 0
    kernel_size: 1
    stride: 1
  }
}
layer {
  name: "bn_block2_8_branch2b"
  type: "BatchNorm"
  bottom: "conv_block2_8_branch2a"
  top: "bn_block2_8_branch2b"
}
layer {
  name: "scale_block2_8_branch2b"
  type: "Scale"
  bottom: "bn_block2_8_branch2b"
  top: "bn_block2_8_branch2b"
  scale_param {
    bias_term: true
  }
}
layer {
  name: "relu_block2_8_branch2b"
  type: "ReLU"
  bottom: "bn_block2_8_branch2b"
  top: "bn_block2_8_branch2b"
}
layer {
  name: "conv_block2_8_branch2b"
  type: "Convolution"
  bottom: "bn_block2_8_branch2b"
  top: "conv_block2_8_branch2b"
  convolution_param {
    num_output: 16
    bias_term: false
    pad: 1
    kernel_size: 3
    stride: 1
  }
}
layer {
  name: "bn_block2_8_branch2c"
  type: "BatchNorm"
  bottom: "conv_block2_8_branch2b"
  top: "bn_block2_8_branch2c"
}
layer {
  name: "scale_block2_8_branch2c"
  type: "Scale"
  bottom: "bn_block2_8_branch2c"
  top: "bn_block2_8_branch2c"
  scale_param {
    bias_term: true
  }
}
layer {
  name: "relu_block2_8_branch2c"
  type: "ReLU"
  bottom: "bn_block2_8_branch2c"
  top: "bn_block2_8_branch2c"
}
layer {
  name: "conv_block2_8_branch2c"
  type: "Convolution"
  bottom: "bn_block2_8_branch2c"
  top: "conv_block2_8_branch2c"
  convolution_param {
    num_output: 64
    bias_term: false
    pad: 0
    kernel_size: 1
    stride: 1
  }
}
layer {
  name: "addition_block2_8"
  type: "Eltwise"
  bottom: "addition_block2_7"
  bottom: "conv_block2_8_branch2c"
  top: "addition_block2_8"
}
layer {
  name: "bn_block2_9_branch2a"
  type: "BatchNorm"
  bottom: "addition_block2_8"
  top: "bn_block2_9_branch2a"
}
layer {
  name: "scale_block2_9_branch2a"
  type: "Scale"
  bottom: "bn_block2_9_branch2a"
  top: "bn_block2_9_branch2a"
  scale_param {
    bias_term: true
  }
}
layer {
  name: "relu_block2_9_branch2a"
  type: "ReLU"
  bottom: "bn_block2_9_branch2a"
  top: "bn_block2_9_branch2a"
}
layer {
  name: "conv_block2_9_branch2a"
  type: "Convolution"
  bottom: "bn_block2_9_branch2a"
  top: "conv_block2_9_branch2a"
  convolution_param {
    num_output: 16
    bias_term: false
    pad: 0
    kernel_size: 1
    stride: 1
  }
}
layer {
  name: "bn_block2_9_branch2b"
  type: "BatchNorm"
  bottom: "conv_block2_9_branch2a"
  top: "bn_block2_9_branch2b"
}
layer {
  name: "scale_block2_9_branch2b"
  type: "Scale"
  bottom: "bn_block2_9_branch2b"
  top: "bn_block2_9_branch2b"
  scale_param {
    bias_term: true
  }
}
layer {
  name: "relu_block2_9_branch2b"
  type: "ReLU"
  bottom: "bn_block2_9_branch2b"
  top: "bn_block2_9_branch2b"
}
layer {
  name: "conv_block2_9_branch2b"
  type: "Convolution"
  bottom: "bn_block2_9_branch2b"
  top: "conv_block2_9_branch2b"
  convolution_param {
    num_output: 16
    bias_term: false
    pad: 1
    kernel_size: 3
    stride: 1
  }
}
layer {
  name: "bn_block2_9_branch2c"
  type: "BatchNorm"
  bottom: "conv_block2_9_branch2b"
  top: "bn_block2_9_branch2c"
}
layer {
  name: "scale_block2_9_branch2c"
  type: "Scale"
  bottom: "bn_block2_9_branch2c"
  top: "bn_block2_9_branch2c"
  scale_param {
    bias_term: true
  }
}
layer {
  name: "relu_block2_9_branch2c"
  type: "ReLU"
  bottom: "bn_block2_9_branch2c"
  top: "bn_block2_9_branch2c"
}
layer {
  name: "conv_block2_9_branch2c"
  type: "Convolution"
  bottom: "bn_block2_9_branch2c"
  top: "conv_block2_9_branch2c"
  convolution_param {
    num_output: 64
    bias_term: false
    pad: 0
    kernel_size: 1
    stride: 1
  }
}
layer {
  name: "addition_block2_9"
  type: "Eltwise"
  bottom: "addition_block2_8"
  bottom: "conv_block2_9_branch2c"
  top: "addition_block2_9"
}
layer {
  name: "bn_block2_10_branch2a"
  type: "BatchNorm"
  bottom: "addition_block2_9"
  top: "bn_block2_10_branch2a"
}
layer {
  name: "scale_block2_10_branch2a"
  type: "Scale"
  bottom: "bn_block2_10_branch2a"
  top: "bn_block2_10_branch2a"
  scale_param {
    bias_term: true
  }
}
layer {
  name: "relu_block2_10_branch2a"
  type: "ReLU"
  bottom: "bn_block2_10_branch2a"
  top: "bn_block2_10_branch2a"
}
layer {
  name: "conv_block2_10_branch2a"
  type: "Convolution"
  bottom: "bn_block2_10_branch2a"
  top: "conv_block2_10_branch2a"
  convolution_param {
    num_output: 16
    bias_term: false
    pad: 0
    kernel_size: 1
    stride: 1
  }
}
layer {
  name: "bn_block2_10_branch2b"
  type: "BatchNorm"
  bottom: "conv_block2_10_branch2a"
  top: "bn_block2_10_branch2b"
}
layer {
  name: "scale_block2_10_branch2b"
  type: "Scale"
  bottom: "bn_block2_10_branch2b"
  top: "bn_block2_10_branch2b"
  scale_param {
    bias_term: true
  }
}
layer {
  name: "relu_block2_10_branch2b"
  type: "ReLU"
  bottom: "bn_block2_10_branch2b"
  top: "bn_block2_10_branch2b"
}
layer {
  name: "conv_block2_10_branch2b"
  type: "Convolution"
  bottom: "bn_block2_10_branch2b"
  top: "conv_block2_10_branch2b"
  convolution_param {
    num_output: 16
    bias_term: false
    pad: 1
    kernel_size: 3
    stride: 1
  }
}
layer {
  name: "bn_block2_10_branch2c"
  type: "BatchNorm"
  bottom: "conv_block2_10_branch2b"
  top: "bn_block2_10_branch2c"
}
layer {
  name: "scale_block2_10_branch2c"
  type: "Scale"
  bottom: "bn_block2_10_branch2c"
  top: "bn_block2_10_branch2c"
  scale_param {
    bias_term: true
  }
}
layer {
  name: "relu_block2_10_branch2c"
  type: "ReLU"
  bottom: "bn_block2_10_branch2c"
  top: "bn_block2_10_branch2c"
}
layer {
  name: "conv_block2_10_branch2c"
  type: "Convolution"
  bottom: "bn_block2_10_branch2c"
  top: "conv_block2_10_branch2c"
  convolution_param {
    num_output: 64
    bias_term: false
    pad: 0
    kernel_size: 1
    stride: 1
  }
}
layer {
  name: "addition_block2_10"
  type: "Eltwise"
  bottom: "addition_block2_9"
  bottom: "conv_block2_10_branch2c"
  top: "addition_block2_10"
}
layer {
  name: "bn_block2_11_branch2a"
  type: "BatchNorm"
  bottom: "addition_block2_10"
  top: "bn_block2_11_branch2a"
}
layer {
  name: "scale_block2_11_branch2a"
  type: "Scale"
  bottom: "bn_block2_11_branch2a"
  top: "bn_block2_11_branch2a"
  scale_param {
    bias_term: true
  }
}
layer {
  name: "relu_block2_11_branch2a"
  type: "ReLU"
  bottom: "bn_block2_11_branch2a"
  top: "bn_block2_11_branch2a"
}
layer {
  name: "conv_block2_11_branch2a"
  type: "Convolution"
  bottom: "bn_block2_11_branch2a"
  top: "conv_block2_11_branch2a"
  convolution_param {
    num_output: 16
    bias_term: false
    pad: 0
    kernel_size: 1
    stride: 1
  }
}
layer {
  name: "bn_block2_11_branch2b"
  type: "BatchNorm"
  bottom: "conv_block2_11_branch2a"
  top: "bn_block2_11_branch2b"
}
layer {
  name: "scale_block2_11_branch2b"
  type: "Scale"
  bottom: "bn_block2_11_branch2b"
  top: "bn_block2_11_branch2b"
  scale_param {
    bias_term: true
  }
}
layer {
  name: "relu_block2_11_branch2b"
  type: "ReLU"
  bottom: "bn_block2_11_branch2b"
  top: "bn_block2_11_branch2b"
}
layer {
  name: "conv_block2_11_branch2b"
  type: "Convolution"
  bottom: "bn_block2_11_branch2b"
  top: "conv_block2_11_branch2b"
  convolution_param {
    num_output: 16
    bias_term: false
    pad: 1
    kernel_size: 3
    stride: 1
  }
}
layer {
  name: "bn_block2_11_branch2c"
  type: "BatchNorm"
  bottom: "conv_block2_11_branch2b"
  top: "bn_block2_11_branch2c"
}
layer {
  name: "scale_block2_11_branch2c"
  type: "Scale"
  bottom: "bn_block2_11_branch2c"
  top: "bn_block2_11_branch2c"
  scale_param {
    bias_term: true
  }
}
layer {
  name: "relu_block2_11_branch2c"
  type: "ReLU"
  bottom: "bn_block2_11_branch2c"
  top: "bn_block2_11_branch2c"
}
layer {
  name: "conv_block2_11_branch2c"
  type: "Convolution"
  bottom: "bn_block2_11_branch2c"
  top: "conv_block2_11_branch2c"
  convolution_param {
    num_output: 64
    bias_term: false
    pad: 0
    kernel_size: 1
    stride: 1
  }
}
layer {
  name: "addition_block2_11"
  type: "Eltwise"
  bottom: "addition_block2_10"
  bottom: "conv_block2_11_branch2c"
  top: "addition_block2_11"
}
layer {
  name: "bn_block2_12_branch2a"
  type: "BatchNorm"
  bottom: "addition_block2_11"
  top: "bn_block2_12_branch2a"
}
layer {
  name: "scale_block2_12_branch2a"
  type: "Scale"
  bottom: "bn_block2_12_branch2a"
  top: "bn_block2_12_branch2a"
  scale_param {
    bias_term: true
  }
}
layer {
  name: "relu_block2_12_branch2a"
  type: "ReLU"
  bottom: "bn_block2_12_branch2a"
  top: "bn_block2_12_branch2a"
}
layer {
  name: "conv_block2_12_branch2a"
  type: "Convolution"
  bottom: "bn_block2_12_branch2a"
  top: "conv_block2_12_branch2a"
  convolution_param {
    num_output: 16
    bias_term: false
    pad: 0
    kernel_size: 1
    stride: 1
  }
}
layer {
  name: "bn_block2_12_branch2b"
  type: "BatchNorm"
  bottom: "conv_block2_12_branch2a"
  top: "bn_block2_12_branch2b"
}
layer {
  name: "scale_block2_12_branch2b"
  type: "Scale"
  bottom: "bn_block2_12_branch2b"
  top: "bn_block2_12_branch2b"
  scale_param {
    bias_term: true
  }
}
layer {
  name: "relu_block2_12_branch2b"
  type: "ReLU"
  bottom: "bn_block2_12_branch2b"
  top: "bn_block2_12_branch2b"
}
layer {
  name: "conv_block2_12_branch2b"
  type: "Convolution"
  bottom: "bn_block2_12_branch2b"
  top: "conv_block2_12_branch2b"
  convolution_param {
    num_output: 16
    bias_term: false
    pad: 1
    kernel_size: 3
    stride: 1
  }
}
layer {
  name: "bn_block2_12_branch2c"
  type: "BatchNorm"
  bottom: "conv_block2_12_branch2b"
  top: "bn_block2_12_branch2c"
}
layer {
  name: "scale_block2_12_branch2c"
  type: "Scale"
  bottom: "bn_block2_12_branch2c"
  top: "bn_block2_12_branch2c"
  scale_param {
    bias_term: true
  }
}
layer {
  name: "relu_block2_12_branch2c"
  type: "ReLU"
  bottom: "bn_block2_12_branch2c"
  top: "bn_block2_12_branch2c"
}
layer {
  name: "conv_block2_12_branch2c"
  type: "Convolution"
  bottom: "bn_block2_12_branch2c"
  top: "conv_block2_12_branch2c"
  convolution_param {
    num_output: 64
    bias_term: false
    pad: 0
    kernel_size: 1
    stride: 1
  }
}
layer {
  name: "addition_block2_12"
  type: "Eltwise"
  bottom: "addition_block2_11"
  bottom: "conv_block2_12_branch2c"
  top: "addition_block2_12"
}
layer {
  name: "bn_block2_13_branch2a"
  type: "BatchNorm"
  bottom: "addition_block2_12"
  top: "bn_block2_13_branch2a"
}
layer {
  name: "scale_block2_13_branch2a"
  type: "Scale"
  bottom: "bn_block2_13_branch2a"
  top: "bn_block2_13_branch2a"
  scale_param {
    bias_term: true
  }
}
layer {
  name: "relu_block2_13_branch2a"
  type: "ReLU"
  bottom: "bn_block2_13_branch2a"
  top: "bn_block2_13_branch2a"
}
layer {
  name: "conv_block2_13_branch2a"
  type: "Convolution"
  bottom: "bn_block2_13_branch2a"
  top: "conv_block2_13_branch2a"
  convolution_param {
    num_output: 16
    bias_term: false
    pad: 0
    kernel_size: 1
    stride: 1
  }
}
layer {
  name: "bn_block2_13_branch2b"
  type: "BatchNorm"
  bottom: "conv_block2_13_branch2a"
  top: "bn_block2_13_branch2b"
}
layer {
  name: "scale_block2_13_branch2b"
  type: "Scale"
  bottom: "bn_block2_13_branch2b"
  top: "bn_block2_13_branch2b"
  scale_param {
    bias_term: true
  }
}
layer {
  name: "relu_block2_13_branch2b"
  type: "ReLU"
  bottom: "bn_block2_13_branch2b"
  top: "bn_block2_13_branch2b"
}
layer {
  name: "conv_block2_13_branch2b"
  type: "Convolution"
  bottom: "bn_block2_13_branch2b"
  top: "conv_block2_13_branch2b"
  convolution_param {
    num_output: 16
    bias_term: false
    pad: 1
    kernel_size: 3
    stride: 1
  }
}
layer {
  name: "bn_block2_13_branch2c"
  type: "BatchNorm"
  bottom: "conv_block2_13_branch2b"
  top: "bn_block2_13_branch2c"
}
layer {
  name: "scale_block2_13_branch2c"
  type: "Scale"
  bottom: "bn_block2_13_branch2c"
  top: "bn_block2_13_branch2c"
  scale_param {
    bias_term: true
  }
}
layer {
  name: "relu_block2_13_branch2c"
  type: "ReLU"
  bottom: "bn_block2_13_branch2c"
  top: "bn_block2_13_branch2c"
}
layer {
  name: "conv_block2_13_branch2c"
  type: "Convolution"
  bottom: "bn_block2_13_branch2c"
  top: "conv_block2_13_branch2c"
  convolution_param {
    num_output: 64
    bias_term: false
    pad: 0
    kernel_size: 1
    stride: 1
  }
}
layer {
  name: "addition_block2_13"
  type: "Eltwise"
  bottom: "addition_block2_12"
  bottom: "conv_block2_13_branch2c"
  top: "addition_block2_13"
}
layer {
  name: "bn_block2_14_branch2a"
  type: "BatchNorm"
  bottom: "addition_block2_13"
  top: "bn_block2_14_branch2a"
}
layer {
  name: "scale_block2_14_branch2a"
  type: "Scale"
  bottom: "bn_block2_14_branch2a"
  top: "bn_block2_14_branch2a"
  scale_param {
    bias_term: true
  }
}
layer {
  name: "relu_block2_14_branch2a"
  type: "ReLU"
  bottom: "bn_block2_14_branch2a"
  top: "bn_block2_14_branch2a"
}
layer {
  name: "conv_block2_14_branch2a"
  type: "Convolution"
  bottom: "bn_block2_14_branch2a"
  top: "conv_block2_14_branch2a"
  convolution_param {
    num_output: 16
    bias_term: false
    pad: 0
    kernel_size: 1
    stride: 1
  }
}
layer {
  name: "bn_block2_14_branch2b"
  type: "BatchNorm"
  bottom: "conv_block2_14_branch2a"
  top: "bn_block2_14_branch2b"
}
layer {
  name: "scale_block2_14_branch2b"
  type: "Scale"
  bottom: "bn_block2_14_branch2b"
  top: "bn_block2_14_branch2b"
  scale_param {
    bias_term: true
  }
}
layer {
  name: "relu_block2_14_branch2b"
  type: "ReLU"
  bottom: "bn_block2_14_branch2b"
  top: "bn_block2_14_branch2b"
}
layer {
  name: "conv_block2_14_branch2b"
  type: "Convolution"
  bottom: "bn_block2_14_branch2b"
  top: "conv_block2_14_branch2b"
  convolution_param {
    num_output: 16
    bias_term: false
    pad: 1
    kernel_size: 3
    stride: 1
  }
}
layer {
  name: "bn_block2_14_branch2c"
  type: "BatchNorm"
  bottom: "conv_block2_14_branch2b"
  top: "bn_block2_14_branch2c"
}
layer {
  name: "scale_block2_14_branch2c"
  type: "Scale"
  bottom: "bn_block2_14_branch2c"
  top: "bn_block2_14_branch2c"
  scale_param {
    bias_term: true
  }
}
layer {
  name: "relu_block2_14_branch2c"
  type: "ReLU"
  bottom: "bn_block2_14_branch2c"
  top: "bn_block2_14_branch2c"
}
layer {
  name: "conv_block2_14_branch2c"
  type: "Convolution"
  bottom: "bn_block2_14_branch2c"
  top: "conv_block2_14_branch2c"
  convolution_param {
    num_output: 64
    bias_term: false
    pad: 0
    kernel_size: 1
    stride: 1
  }
}
layer {
  name: "addition_block2_14"
  type: "Eltwise"
  bottom: "addition_block2_13"
  bottom: "conv_block2_14_branch2c"
  top: "addition_block2_14"
}
layer {
  name: "bn_block2_15_branch2a"
  type: "BatchNorm"
  bottom: "addition_block2_14"
  top: "bn_block2_15_branch2a"
}
layer {
  name: "scale_block2_15_branch2a"
  type: "Scale"
  bottom: "bn_block2_15_branch2a"
  top: "bn_block2_15_branch2a"
  scale_param {
    bias_term: true
  }
}
layer {
  name: "relu_block2_15_branch2a"
  type: "ReLU"
  bottom: "bn_block2_15_branch2a"
  top: "bn_block2_15_branch2a"
}
layer {
  name: "conv_block2_15_branch2a"
  type: "Convolution"
  bottom: "bn_block2_15_branch2a"
  top: "conv_block2_15_branch2a"
  convolution_param {
    num_output: 16
    bias_term: false
    pad: 0
    kernel_size: 1
    stride: 1
  }
}
layer {
  name: "bn_block2_15_branch2b"
  type: "BatchNorm"
  bottom: "conv_block2_15_branch2a"
  top: "bn_block2_15_branch2b"
}
layer {
  name: "scale_block2_15_branch2b"
  type: "Scale"
  bottom: "bn_block2_15_branch2b"
  top: "bn_block2_15_branch2b"
  scale_param {
    bias_term: true
  }
}
layer {
  name: "relu_block2_15_branch2b"
  type: "ReLU"
  bottom: "bn_block2_15_branch2b"
  top: "bn_block2_15_branch2b"
}
layer {
  name: "conv_block2_15_branch2b"
  type: "Convolution"
  bottom: "bn_block2_15_branch2b"
  top: "conv_block2_15_branch2b"
  convolution_param {
    num_output: 16
    bias_term: false
    pad: 1
    kernel_size: 3
    stride: 1
  }
}
layer {
  name: "bn_block2_15_branch2c"
  type: "BatchNorm"
  bottom: "conv_block2_15_branch2b"
  top: "bn_block2_15_branch2c"
}
layer {
  name: "scale_block2_15_branch2c"
  type: "Scale"
  bottom: "bn_block2_15_branch2c"
  top: "bn_block2_15_branch2c"
  scale_param {
    bias_term: true
  }
}
layer {
  name: "relu_block2_15_branch2c"
  type: "ReLU"
  bottom: "bn_block2_15_branch2c"
  top: "bn_block2_15_branch2c"
}
layer {
  name: "conv_block2_15_branch2c"
  type: "Convolution"
  bottom: "bn_block2_15_branch2c"
  top: "conv_block2_15_branch2c"
  convolution_param {
    num_output: 64
    bias_term: false
    pad: 0
    kernel_size: 1
    stride: 1
  }
}
layer {
  name: "addition_block2_15"
  type: "Eltwise"
  bottom: "addition_block2_14"
  bottom: "conv_block2_15_branch2c"
  top: "addition_block2_15"
}
layer {
  name: "bn_block2_16_branch2a"
  type: "BatchNorm"
  bottom: "addition_block2_15"
  top: "bn_block2_16_branch2a"
}
layer {
  name: "scale_block2_16_branch2a"
  type: "Scale"
  bottom: "bn_block2_16_branch2a"
  top: "bn_block2_16_branch2a"
  scale_param {
    bias_term: true
  }
}
layer {
  name: "relu_block2_16_branch2a"
  type: "ReLU"
  bottom: "bn_block2_16_branch2a"
  top: "bn_block2_16_branch2a"
}
layer {
  name: "conv_block2_16_branch2a"
  type: "Convolution"
  bottom: "bn_block2_16_branch2a"
  top: "conv_block2_16_branch2a"
  convolution_param {
    num_output: 16
    bias_term: false
    pad: 0
    kernel_size: 1
    stride: 1
  }
}
layer {
  name: "bn_block2_16_branch2b"
  type: "BatchNorm"
  bottom: "conv_block2_16_branch2a"
  top: "bn_block2_16_branch2b"
}
layer {
  name: "scale_block2_16_branch2b"
  type: "Scale"
  bottom: "bn_block2_16_branch2b"
  top: "bn_block2_16_branch2b"
  scale_param {
    bias_term: true
  }
}
layer {
  name: "relu_block2_16_branch2b"
  type: "ReLU"
  bottom: "bn_block2_16_branch2b"
  top: "bn_block2_16_branch2b"
}
layer {
  name: "conv_block2_16_branch2b"
  type: "Convolution"
  bottom: "bn_block2_16_branch2b"
  top: "conv_block2_16_branch2b"
  convolution_param {
    num_output: 16
    bias_term: false
    pad: 1
    kernel_size: 3
    stride: 1
  }
}
layer {
  name: "bn_block2_16_branch2c"
  type: "BatchNorm"
  bottom: "conv_block2_16_branch2b"
  top: "bn_block2_16_branch2c"
}
layer {
  name: "scale_block2_16_branch2c"
  type: "Scale"
  bottom: "bn_block2_16_branch2c"
  top: "bn_block2_16_branch2c"
  scale_param {
    bias_term: true
  }
}
layer {
  name: "relu_block2_16_branch2c"
  type: "ReLU"
  bottom: "bn_block2_16_branch2c"
  top: "bn_block2_16_branch2c"
}
layer {
  name: "conv_block2_16_branch2c"
  type: "Convolution"
  bottom: "bn_block2_16_branch2c"
  top: "conv_block2_16_branch2c"
  convolution_param {
    num_output: 64
    bias_term: false
    pad: 0
    kernel_size: 1
    stride: 1
  }
}
layer {
  name: "addition_block2_16"
  type: "Eltwise"
  bottom: "addition_block2_15"
  bottom: "conv_block2_16_branch2c"
  top: "addition_block2_16"
}
layer {
  name: "bn_block2_17_branch2a"
  type: "BatchNorm"
  bottom: "addition_block2_16"
  top: "bn_block2_17_branch2a"
}
layer {
  name: "scale_block2_17_branch2a"
  type: "Scale"
  bottom: "bn_block2_17_branch2a"
  top: "bn_block2_17_branch2a"
  scale_param {
    bias_term: true
  }
}
layer {
  name: "relu_block2_17_branch2a"
  type: "ReLU"
  bottom: "bn_block2_17_branch2a"
  top: "bn_block2_17_branch2a"
}
layer {
  name: "conv_block2_17_branch2a"
  type: "Convolution"
  bottom: "bn_block2_17_branch2a"
  top: "conv_block2_17_branch2a"
  convolution_param {
    num_output: 16
    bias_term: false
    pad: 0
    kernel_size: 1
    stride: 1
  }
}
layer {
  name: "bn_block2_17_branch2b"
  type: "BatchNorm"
  bottom: "conv_block2_17_branch2a"
  top: "bn_block2_17_branch2b"
}
layer {
  name: "scale_block2_17_branch2b"
  type: "Scale"
  bottom: "bn_block2_17_branch2b"
  top: "bn_block2_17_branch2b"
  scale_param {
    bias_term: true
  }
}
layer {
  name: "relu_block2_17_branch2b"
  type: "ReLU"
  bottom: "bn_block2_17_branch2b"
  top: "bn_block2_17_branch2b"
}
layer {
  name: "conv_block2_17_branch2b"
  type: "Convolution"
  bottom: "bn_block2_17_branch2b"
  top: "conv_block2_17_branch2b"
  convolution_param {
    num_output: 16
    bias_term: false
    pad: 1
    kernel_size: 3
    stride: 1
  }
}
layer {
  name: "bn_block2_17_branch2c"
  type: "BatchNorm"
  bottom: "conv_block2_17_branch2b"
  top: "bn_block2_17_branch2c"
}
layer {
  name: "scale_block2_17_branch2c"
  type: "Scale"
  bottom: "bn_block2_17_branch2c"
  top: "bn_block2_17_branch2c"
  scale_param {
    bias_term: true
  }
}
layer {
  name: "relu_block2_17_branch2c"
  type: "ReLU"
  bottom: "bn_block2_17_branch2c"
  top: "bn_block2_17_branch2c"
}
layer {
  name: "conv_block2_17_branch2c"
  type: "Convolution"
  bottom: "bn_block2_17_branch2c"
  top: "conv_block2_17_branch2c"
  convolution_param {
    num_output: 64
    bias_term: false
    pad: 0
    kernel_size: 1
    stride: 1
  }
}
layer {
  name: "addition_block2_17"
  type: "Eltwise"
  bottom: "addition_block2_16"
  bottom: "conv_block2_17_branch2c"
  top: "addition_block2_17"
}
layer {
  name: "bn_block2_18_branch2a"
  type: "BatchNorm"
  bottom: "addition_block2_17"
  top: "bn_block2_18_branch2a"
}
layer {
  name: "scale_block2_18_branch2a"
  type: "Scale"
  bottom: "bn_block2_18_branch2a"
  top: "bn_block2_18_branch2a"
  scale_param {
    bias_term: true
  }
}
layer {
  name: "relu_block2_18_branch2a"
  type: "ReLU"
  bottom: "bn_block2_18_branch2a"
  top: "bn_block2_18_branch2a"
}
layer {
  name: "conv_block2_18_branch2a"
  type: "Convolution"
  bottom: "bn_block2_18_branch2a"
  top: "conv_block2_18_branch2a"
  convolution_param {
    num_output: 16
    bias_term: false
    pad: 0
    kernel_size: 1
    stride: 1
  }
}
layer {
  name: "bn_block2_18_branch2b"
  type: "BatchNorm"
  bottom: "conv_block2_18_branch2a"
  top: "bn_block2_18_branch2b"
}
layer {
  name: "scale_block2_18_branch2b"
  type: "Scale"
  bottom: "bn_block2_18_branch2b"
  top: "bn_block2_18_branch2b"
  scale_param {
    bias_term: true
  }
}
layer {
  name: "relu_block2_18_branch2b"
  type: "ReLU"
  bottom: "bn_block2_18_branch2b"
  top: "bn_block2_18_branch2b"
}
layer {
  name: "conv_block2_18_branch2b"
  type: "Convolution"
  bottom: "bn_block2_18_branch2b"
  top: "conv_block2_18_branch2b"
  convolution_param {
    num_output: 16
    bias_term: false
    pad: 1
    kernel_size: 3
    stride: 1
  }
}
layer {
  name: "bn_block2_18_branch2c"
  type: "BatchNorm"
  bottom: "conv_block2_18_branch2b"
  top: "bn_block2_18_branch2c"
}
layer {
  name: "scale_block2_18_branch2c"
  type: "Scale"
  bottom: "bn_block2_18_branch2c"
  top: "bn_block2_18_branch2c"
  scale_param {
    bias_term: true
  }
}
layer {
  name: "relu_block2_18_branch2c"
  type: "ReLU"
  bottom: "bn_block2_18_branch2c"
  top: "bn_block2_18_branch2c"
}
layer {
  name: "conv_block2_18_branch2c"
  type: "Convolution"
  bottom: "bn_block2_18_branch2c"
  top: "conv_block2_18_branch2c"
  convolution_param {
    num_output: 64
    bias_term: false
    pad: 0
    kernel_size: 1
    stride: 1
  }
}
layer {
  name: "addition_block2_18"
  type: "Eltwise"
  bottom: "addition_block2_17"
  bottom: "conv_block2_18_branch2c"
  top: "addition_block2_18"
}
layer {
  name: "bn_block2_19_branch2a"
  type: "BatchNorm"
  bottom: "addition_block2_18"
  top: "bn_block2_19_branch2a"
}
layer {
  name: "scale_block2_19_branch2a"
  type: "Scale"
  bottom: "bn_block2_19_branch2a"
  top: "bn_block2_19_branch2a"
  scale_param {
    bias_term: true
  }
}
layer {
  name: "relu_block2_19_branch2a"
  type: "ReLU"
  bottom: "bn_block2_19_branch2a"
  top: "bn_block2_19_branch2a"
}
layer {
  name: "conv_block2_19_branch2a"
  type: "Convolution"
  bottom: "bn_block2_19_branch2a"
  top: "conv_block2_19_branch2a"
  convolution_param {
    num_output: 16
    bias_term: false
    pad: 0
    kernel_size: 1
    stride: 1
  }
}
layer {
  name: "bn_block2_19_branch2b"
  type: "BatchNorm"
  bottom: "conv_block2_19_branch2a"
  top: "bn_block2_19_branch2b"
}
layer {
  name: "scale_block2_19_branch2b"
  type: "Scale"
  bottom: "bn_block2_19_branch2b"
  top: "bn_block2_19_branch2b"
  scale_param {
    bias_term: true
  }
}
layer {
  name: "relu_block2_19_branch2b"
  type: "ReLU"
  bottom: "bn_block2_19_branch2b"
  top: "bn_block2_19_branch2b"
}
layer {
  name: "conv_block2_19_branch2b"
  type: "Convolution"
  bottom: "bn_block2_19_branch2b"
  top: "conv_block2_19_branch2b"
  convolution_param {
    num_output: 16
    bias_term: false
    pad: 1
    kernel_size: 3
    stride: 1
  }
}
layer {
  name: "bn_block2_19_branch2c"
  type: "BatchNorm"
  bottom: "conv_block2_19_branch2b"
  top: "bn_block2_19_branch2c"
}
layer {
  name: "scale_block2_19_branch2c"
  type: "Scale"
  bottom: "bn_block2_19_branch2c"
  top: "bn_block2_19_branch2c"
  scale_param {
    bias_term: true
  }
}
layer {
  name: "relu_block2_19_branch2c"
  type: "ReLU"
  bottom: "bn_block2_19_branch2c"
  top: "bn_block2_19_branch2c"
}
layer {
  name: "conv_block2_19_branch2c"
  type: "Convolution"
  bottom: "bn_block2_19_branch2c"
  top: "conv_block2_19_branch2c"
  convolution_param {
    num_output: 64
    bias_term: false
    pad: 0
    kernel_size: 1
    stride: 1
  }
}
layer {
  name: "addition_block2_19"
  type: "Eltwise"
  bottom: "addition_block2_18"
  bottom: "conv_block2_19_branch2c"
  top: "addition_block2_19"
}
layer {
  name: "bn_block2_20_branch2a"
  type: "BatchNorm"
  bottom: "addition_block2_19"
  top: "bn_block2_20_branch2a"
}
layer {
  name: "scale_block2_20_branch2a"
  type: "Scale"
  bottom: "bn_block2_20_branch2a"
  top: "bn_block2_20_branch2a"
  scale_param {
    bias_term: true
  }
}
layer {
  name: "relu_block2_20_branch2a"
  type: "ReLU"
  bottom: "bn_block2_20_branch2a"
  top: "bn_block2_20_branch2a"
}
layer {
  name: "conv_block2_20_branch2a"
  type: "Convolution"
  bottom: "bn_block2_20_branch2a"
  top: "conv_block2_20_branch2a"
  convolution_param {
    num_output: 16
    bias_term: false
    pad: 0
    kernel_size: 1
    stride: 1
  }
}
layer {
  name: "bn_block2_20_branch2b"
  type: "BatchNorm"
  bottom: "conv_block2_20_branch2a"
  top: "bn_block2_20_branch2b"
}
layer {
  name: "scale_block2_20_branch2b"
  type: "Scale"
  bottom: "bn_block2_20_branch2b"
  top: "bn_block2_20_branch2b"
  scale_param {
    bias_term: true
  }
}
layer {
  name: "relu_block2_20_branch2b"
  type: "ReLU"
  bottom: "bn_block2_20_branch2b"
  top: "bn_block2_20_branch2b"
}
layer {
  name: "conv_block2_20_branch2b"
  type: "Convolution"
  bottom: "bn_block2_20_branch2b"
  top: "conv_block2_20_branch2b"
  convolution_param {
    num_output: 16
    bias_term: false
    pad: 1
    kernel_size: 3
    stride: 1
  }
}
layer {
  name: "bn_block2_20_branch2c"
  type: "BatchNorm"
  bottom: "conv_block2_20_branch2b"
  top: "bn_block2_20_branch2c"
}
layer {
  name: "scale_block2_20_branch2c"
  type: "Scale"
  bottom: "bn_block2_20_branch2c"
  top: "bn_block2_20_branch2c"
  scale_param {
    bias_term: true
  }
}
layer {
  name: "relu_block2_20_branch2c"
  type: "ReLU"
  bottom: "bn_block2_20_branch2c"
  top: "bn_block2_20_branch2c"
}
layer {
  name: "conv_block2_20_branch2c"
  type: "Convolution"
  bottom: "bn_block2_20_branch2c"
  top: "conv_block2_20_branch2c"
  convolution_param {
    num_output: 64
    bias_term: false
    pad: 0
    kernel_size: 1
    stride: 1
  }
}
layer {
  name: "addition_block2_20"
  type: "Eltwise"
  bottom: "addition_block2_19"
  bottom: "conv_block2_20_branch2c"
  top: "addition_block2_20"
}
layer {
  name: "bn_block2_21_branch2a"
  type: "BatchNorm"
  bottom: "addition_block2_20"
  top: "bn_block2_21_branch2a"
}
layer {
  name: "scale_block2_21_branch2a"
  type: "Scale"
  bottom: "bn_block2_21_branch2a"
  top: "bn_block2_21_branch2a"
  scale_param {
    bias_term: true
  }
}
layer {
  name: "relu_block2_21_branch2a"
  type: "ReLU"
  bottom: "bn_block2_21_branch2a"
  top: "bn_block2_21_branch2a"
}
layer {
  name: "conv_block2_21_branch2a"
  type: "Convolution"
  bottom: "bn_block2_21_branch2a"
  top: "conv_block2_21_branch2a"
  convolution_param {
    num_output: 16
    bias_term: false
    pad: 0
    kernel_size: 1
    stride: 1
  }
}
layer {
  name: "bn_block2_21_branch2b"
  type: "BatchNorm"
  bottom: "conv_block2_21_branch2a"
  top: "bn_block2_21_branch2b"
}
layer {
  name: "scale_block2_21_branch2b"
  type: "Scale"
  bottom: "bn_block2_21_branch2b"
  top: "bn_block2_21_branch2b"
  scale_param {
    bias_term: true
  }
}
layer {
  name: "relu_block2_21_branch2b"
  type: "ReLU"
  bottom: "bn_block2_21_branch2b"
  top: "bn_block2_21_branch2b"
}
layer {
  name: "conv_block2_21_branch2b"
  type: "Convolution"
  bottom: "bn_block2_21_branch2b"
  top: "conv_block2_21_branch2b"
  convolution_param {
    num_output: 16
    bias_term: false
    pad: 1
    kernel_size: 3
    stride: 1
  }
}
layer {
  name: "bn_block2_21_branch2c"
  type: "BatchNorm"
  bottom: "conv_block2_21_branch2b"
  top: "bn_block2_21_branch2c"
}
layer {
  name: "scale_block2_21_branch2c"
  type: "Scale"
  bottom: "bn_block2_21_branch2c"
  top: "bn_block2_21_branch2c"
  scale_param {
    bias_term: true
  }
}
layer {
  name: "relu_block2_21_branch2c"
  type: "ReLU"
  bottom: "bn_block2_21_branch2c"
  top: "bn_block2_21_branch2c"
}
layer {
  name: "conv_block2_21_branch2c"
  type: "Convolution"
  bottom: "bn_block2_21_branch2c"
  top: "conv_block2_21_branch2c"
  convolution_param {
    num_output: 64
    bias_term: false
    pad: 0
    kernel_size: 1
    stride: 1
  }
}
layer {
  name: "addition_block2_21"
  type: "Eltwise"
  bottom: "addition_block2_20"
  bottom: "conv_block2_21_branch2c"
  top: "addition_block2_21"
}
layer {
  name: "bn_block2_22_branch2a"
  type: "BatchNorm"
  bottom: "addition_block2_21"
  top: "bn_block2_22_branch2a"
}
layer {
  name: "scale_block2_22_branch2a"
  type: "Scale"
  bottom: "bn_block2_22_branch2a"
  top: "bn_block2_22_branch2a"
  scale_param {
    bias_term: true
  }
}
layer {
  name: "relu_block2_22_branch2a"
  type: "ReLU"
  bottom: "bn_block2_22_branch2a"
  top: "bn_block2_22_branch2a"
}
layer {
  name: "conv_block2_22_branch2a"
  type: "Convolution"
  bottom: "bn_block2_22_branch2a"
  top: "conv_block2_22_branch2a"
  convolution_param {
    num_output: 16
    bias_term: false
    pad: 0
    kernel_size: 1
    stride: 1
  }
}
layer {
  name: "bn_block2_22_branch2b"
  type: "BatchNorm"
  bottom: "conv_block2_22_branch2a"
  top: "bn_block2_22_branch2b"
}
layer {
  name: "scale_block2_22_branch2b"
  type: "Scale"
  bottom: "bn_block2_22_branch2b"
  top: "bn_block2_22_branch2b"
  scale_param {
    bias_term: true
  }
}
layer {
  name: "relu_block2_22_branch2b"
  type: "ReLU"
  bottom: "bn_block2_22_branch2b"
  top: "bn_block2_22_branch2b"
}
layer {
  name: "conv_block2_22_branch2b"
  type: "Convolution"
  bottom: "bn_block2_22_branch2b"
  top: "conv_block2_22_branch2b"
  convolution_param {
    num_output: 16
    bias_term: false
    pad: 1
    kernel_size: 3
    stride: 1
  }
}
layer {
  name: "bn_block2_22_branch2c"
  type: "BatchNorm"
  bottom: "conv_block2_22_branch2b"
  top: "bn_block2_22_branch2c"
}
layer {
  name: "scale_block2_22_branch2c"
  type: "Scale"
  bottom: "bn_block2_22_branch2c"
  top: "bn_block2_22_branch2c"
  scale_param {
    bias_term: true
  }
}
layer {
  name: "relu_block2_22_branch2c"
  type: "ReLU"
  bottom: "bn_block2_22_branch2c"
  top: "bn_block2_22_branch2c"
}
layer {
  name: "conv_block2_22_branch2c"
  type: "Convolution"
  bottom: "bn_block2_22_branch2c"
  top: "conv_block2_22_branch2c"
  convolution_param {
    num_output: 64
    bias_term: false
    pad: 0
    kernel_size: 1
    stride: 1
  }
}
layer {
  name: "addition_block2_22"
  type: "Eltwise"
  bottom: "addition_block2_21"
  bottom: "conv_block2_22_branch2c"
  top: "addition_block2_22"
}
layer {
  name: "bn_block2_23_branch2a"
  type: "BatchNorm"
  bottom: "addition_block2_22"
  top: "bn_block2_23_branch2a"
}
layer {
  name: "scale_block2_23_branch2a"
  type: "Scale"
  bottom: "bn_block2_23_branch2a"
  top: "bn_block2_23_branch2a"
  scale_param {
    bias_term: true
  }
}
layer {
  name: "relu_block2_23_branch2a"
  type: "ReLU"
  bottom: "bn_block2_23_branch2a"
  top: "bn_block2_23_branch2a"
}
layer {
  name: "conv_block2_23_branch2a"
  type: "Convolution"
  bottom: "bn_block2_23_branch2a"
  top: "conv_block2_23_branch2a"
  convolution_param {
    num_output: 16
    bias_term: false
    pad: 0
    kernel_size: 1
    stride: 1
  }
}
layer {
  name: "bn_block2_23_branch2b"
  type: "BatchNorm"
  bottom: "conv_block2_23_branch2a"
  top: "bn_block2_23_branch2b"
}
layer {
  name: "scale_block2_23_branch2b"
  type: "Scale"
  bottom: "bn_block2_23_branch2b"
  top: "bn_block2_23_branch2b"
  scale_param {
    bias_term: true
  }
}
layer {
  name: "relu_block2_23_branch2b"
  type: "ReLU"
  bottom: "bn_block2_23_branch2b"
  top: "bn_block2_23_branch2b"
}
layer {
  name: "conv_block2_23_branch2b"
  type: "Convolution"
  bottom: "bn_block2_23_branch2b"
  top: "conv_block2_23_branch2b"
  convolution_param {
    num_output: 16
    bias_term: false
    pad: 1
    kernel_size: 3
    stride: 1
  }
}
layer {
  name: "bn_block2_23_branch2c"
  type: "BatchNorm"
  bottom: "conv_block2_23_branch2b"
  top: "bn_block2_23_branch2c"
}
layer {
  name: "scale_block2_23_branch2c"
  type: "Scale"
  bottom: "bn_block2_23_branch2c"
  top: "bn_block2_23_branch2c"
  scale_param {
    bias_term: true
  }
}
layer {
  name: "relu_block2_23_branch2c"
  type: "ReLU"
  bottom: "bn_block2_23_branch2c"
  top: "bn_block2_23_branch2c"
}
layer {
  name: "conv_block2_23_branch2c"
  type: "Convolution"
  bottom: "bn_block2_23_branch2c"
  top: "conv_block2_23_branch2c"
  convolution_param {
    num_output: 64
    bias_term: false
    pad: 0
    kernel_size: 1
    stride: 1
  }
}
layer {
  name: "addition_block2_23"
  type: "Eltwise"
  bottom: "addition_block2_22"
  bottom: "conv_block2_23_branch2c"
  top: "addition_block2_23"
}
layer {
  name: "bn_block2_24_branch2a"
  type: "BatchNorm"
  bottom: "addition_block2_23"
  top: "bn_block2_24_branch2a"
}
layer {
  name: "scale_block2_24_branch2a"
  type: "Scale"
  bottom: "bn_block2_24_branch2a"
  top: "bn_block2_24_branch2a"
  scale_param {
    bias_term: true
  }
}
layer {
  name: "relu_block2_24_branch2a"
  type: "ReLU"
  bottom: "bn_block2_24_branch2a"
  top: "bn_block2_24_branch2a"
}
layer {
  name: "conv_block2_24_branch2a"
  type: "Convolution"
  bottom: "bn_block2_24_branch2a"
  top: "conv_block2_24_branch2a"
  convolution_param {
    num_output: 16
    bias_term: false
    pad: 0
    kernel_size: 1
    stride: 1
  }
}
layer {
  name: "bn_block2_24_branch2b"
  type: "BatchNorm"
  bottom: "conv_block2_24_branch2a"
  top: "bn_block2_24_branch2b"
}
layer {
  name: "scale_block2_24_branch2b"
  type: "Scale"
  bottom: "bn_block2_24_branch2b"
  top: "bn_block2_24_branch2b"
  scale_param {
    bias_term: true
  }
}
layer {
  name: "relu_block2_24_branch2b"
  type: "ReLU"
  bottom: "bn_block2_24_branch2b"
  top: "bn_block2_24_branch2b"
}
layer {
  name: "conv_block2_24_branch2b"
  type: "Convolution"
  bottom: "bn_block2_24_branch2b"
  top: "conv_block2_24_branch2b"
  convolution_param {
    num_output: 16
    bias_term: false
    pad: 1
    kernel_size: 3
    stride: 1
  }
}
layer {
  name: "bn_block2_24_branch2c"
  type: "BatchNorm"
  bottom: "conv_block2_24_branch2b"
  top: "bn_block2_24_branch2c"
}
layer {
  name: "scale_block2_24_branch2c"
  type: "Scale"
  bottom: "bn_block2_24_branch2c"
  top: "bn_block2_24_branch2c"
  scale_param {
    bias_term: true
  }
}
layer {
  name: "relu_block2_24_branch2c"
  type: "ReLU"
  bottom: "bn_block2_24_branch2c"
  top: "bn_block2_24_branch2c"
}
layer {
  name: "conv_block2_24_branch2c"
  type: "Convolution"
  bottom: "bn_block2_24_branch2c"
  top: "conv_block2_24_branch2c"
  convolution_param {
    num_output: 64
    bias_term: false
    pad: 0
    kernel_size: 1
    stride: 1
  }
}
layer {
  name: "addition_block2_24"
  type: "Eltwise"
  bottom: "addition_block2_23"
  bottom: "conv_block2_24_branch2c"
  top: "addition_block2_24"
}
layer {
  name: "bn_block2_25_branch2a"
  type: "BatchNorm"
  bottom: "addition_block2_24"
  top: "bn_block2_25_branch2a"
}
layer {
  name: "scale_block2_25_branch2a"
  type: "Scale"
  bottom: "bn_block2_25_branch2a"
  top: "bn_block2_25_branch2a"
  scale_param {
    bias_term: true
  }
}
layer {
  name: "relu_block2_25_branch2a"
  type: "ReLU"
  bottom: "bn_block2_25_branch2a"
  top: "bn_block2_25_branch2a"
}
layer {
  name: "conv_block2_25_branch2a"
  type: "Convolution"
  bottom: "bn_block2_25_branch2a"
  top: "conv_block2_25_branch2a"
  convolution_param {
    num_output: 16
    bias_term: false
    pad: 0
    kernel_size: 1
    stride: 1
  }
}
layer {
  name: "bn_block2_25_branch2b"
  type: "BatchNorm"
  bottom: "conv_block2_25_branch2a"
  top: "bn_block2_25_branch2b"
}
layer {
  name: "scale_block2_25_branch2b"
  type: "Scale"
  bottom: "bn_block2_25_branch2b"
  top: "bn_block2_25_branch2b"
  scale_param {
    bias_term: true
  }
}
layer {
  name: "relu_block2_25_branch2b"
  type: "ReLU"
  bottom: "bn_block2_25_branch2b"
  top: "bn_block2_25_branch2b"
}
layer {
  name: "conv_block2_25_branch2b"
  type: "Convolution"
  bottom: "bn_block2_25_branch2b"
  top: "conv_block2_25_branch2b"
  convolution_param {
    num_output: 16
    bias_term: false
    pad: 1
    kernel_size: 3
    stride: 1
  }
}
layer {
  name: "bn_block2_25_branch2c"
  type: "BatchNorm"
  bottom: "conv_block2_25_branch2b"
  top: "bn_block2_25_branch2c"
}
layer {
  name: "scale_block2_25_branch2c"
  type: "Scale"
  bottom: "bn_block2_25_branch2c"
  top: "bn_block2_25_branch2c"
  scale_param {
    bias_term: true
  }
}
layer {
  name: "relu_block2_25_branch2c"
  type: "ReLU"
  bottom: "bn_block2_25_branch2c"
  top: "bn_block2_25_branch2c"
}
layer {
  name: "conv_block2_25_branch2c"
  type: "Convolution"
  bottom: "bn_block2_25_branch2c"
  top: "conv_block2_25_branch2c"
  convolution_param {
    num_output: 64
    bias_term: false
    pad: 0
    kernel_size: 1
    stride: 1
  }
}
layer {
  name: "addition_block2_25"
  type: "Eltwise"
  bottom: "addition_block2_24"
  bottom: "conv_block2_25_branch2c"
  top: "addition_block2_25"
}
layer {
  name: "bn_block2_26_branch2a"
  type: "BatchNorm"
  bottom: "addition_block2_25"
  top: "bn_block2_26_branch2a"
}
layer {
  name: "scale_block2_26_branch2a"
  type: "Scale"
  bottom: "bn_block2_26_branch2a"
  top: "bn_block2_26_branch2a"
  scale_param {
    bias_term: true
  }
}
layer {
  name: "relu_block2_26_branch2a"
  type: "ReLU"
  bottom: "bn_block2_26_branch2a"
  top: "bn_block2_26_branch2a"
}
layer {
  name: "conv_block2_26_branch2a"
  type: "Convolution"
  bottom: "bn_block2_26_branch2a"
  top: "conv_block2_26_branch2a"
  convolution_param {
    num_output: 16
    bias_term: false
    pad: 0
    kernel_size: 1
    stride: 1
  }
}
layer {
  name: "bn_block2_26_branch2b"
  type: "BatchNorm"
  bottom: "conv_block2_26_branch2a"
  top: "bn_block2_26_branch2b"
}
layer {
  name: "scale_block2_26_branch2b"
  type: "Scale"
  bottom: "bn_block2_26_branch2b"
  top: "bn_block2_26_branch2b"
  scale_param {
    bias_term: true
  }
}
layer {
  name: "relu_block2_26_branch2b"
  type: "ReLU"
  bottom: "bn_block2_26_branch2b"
  top: "bn_block2_26_branch2b"
}
layer {
  name: "conv_block2_26_branch2b"
  type: "Convolution"
  bottom: "bn_block2_26_branch2b"
  top: "conv_block2_26_branch2b"
  convolution_param {
    num_output: 16
    bias_term: false
    pad: 1
    kernel_size: 3
    stride: 1
  }
}
layer {
  name: "bn_block2_26_branch2c"
  type: "BatchNorm"
  bottom: "conv_block2_26_branch2b"
  top: "bn_block2_26_branch2c"
}
layer {
  name: "scale_block2_26_branch2c"
  type: "Scale"
  bottom: "bn_block2_26_branch2c"
  top: "bn_block2_26_branch2c"
  scale_param {
    bias_term: true
  }
}
layer {
  name: "relu_block2_26_branch2c"
  type: "ReLU"
  bottom: "bn_block2_26_branch2c"
  top: "bn_block2_26_branch2c"
}
layer {
  name: "conv_block2_26_branch2c"
  type: "Convolution"
  bottom: "bn_block2_26_branch2c"
  top: "conv_block2_26_branch2c"
  convolution_param {
    num_output: 64
    bias_term: false
    pad: 0
    kernel_size: 1
    stride: 1
  }
}
layer {
  name: "addition_block2_26"
  type: "Eltwise"
  bottom: "addition_block2_25"
  bottom: "conv_block2_26_branch2c"
  top: "addition_block2_26"
}
layer {
  name: "bn_block2_27_branch2a"
  type: "BatchNorm"
  bottom: "addition_block2_26"
  top: "bn_block2_27_branch2a"
}
layer {
  name: "scale_block2_27_branch2a"
  type: "Scale"
  bottom: "bn_block2_27_branch2a"
  top: "bn_block2_27_branch2a"
  scale_param {
    bias_term: true
  }
}
layer {
  name: "relu_block2_27_branch2a"
  type: "ReLU"
  bottom: "bn_block2_27_branch2a"
  top: "bn_block2_27_branch2a"
}
layer {
  name: "conv_block2_27_branch2a"
  type: "Convolution"
  bottom: "bn_block2_27_branch2a"
  top: "conv_block2_27_branch2a"
  convolution_param {
    num_output: 16
    bias_term: false
    pad: 0
    kernel_size: 1
    stride: 1
  }
}
layer {
  name: "bn_block2_27_branch2b"
  type: "BatchNorm"
  bottom: "conv_block2_27_branch2a"
  top: "bn_block2_27_branch2b"
}
layer {
  name: "scale_block2_27_branch2b"
  type: "Scale"
  bottom: "bn_block2_27_branch2b"
  top: "bn_block2_27_branch2b"
  scale_param {
    bias_term: true
  }
}
layer {
  name: "relu_block2_27_branch2b"
  type: "ReLU"
  bottom: "bn_block2_27_branch2b"
  top: "bn_block2_27_branch2b"
}
layer {
  name: "conv_block2_27_branch2b"
  type: "Convolution"
  bottom: "bn_block2_27_branch2b"
  top: "conv_block2_27_branch2b"
  convolution_param {
    num_output: 16
    bias_term: false
    pad: 1
    kernel_size: 3
    stride: 1
  }
}
layer {
  name: "bn_block2_27_branch2c"
  type: "BatchNorm"
  bottom: "conv_block2_27_branch2b"
  top: "bn_block2_27_branch2c"
}
layer {
  name: "scale_block2_27_branch2c"
  type: "Scale"
  bottom: "bn_block2_27_branch2c"
  top: "bn_block2_27_branch2c"
  scale_param {
    bias_term: true
  }
}
layer {
  name: "relu_block2_27_branch2c"
  type: "ReLU"
  bottom: "bn_block2_27_branch2c"
  top: "bn_block2_27_branch2c"
}
layer {
  name: "conv_block2_27_branch2c"
  type: "Convolution"
  bottom: "bn_block2_27_branch2c"
  top: "conv_block2_27_branch2c"
  convolution_param {
    num_output: 64
    bias_term: false
    pad: 0
    kernel_size: 1
    stride: 1
  }
}
layer {
  name: "addition_block2_27"
  type: "Eltwise"
  bottom: "addition_block2_26"
  bottom: "conv_block2_27_branch2c"
  top: "addition_block2_27"
}
layer {
  name: "bn_block2_28_branch2a"
  type: "BatchNorm"
  bottom: "addition_block2_27"
  top: "bn_block2_28_branch2a"
}
layer {
  name: "scale_block2_28_branch2a"
  type: "Scale"
  bottom: "bn_block2_28_branch2a"
  top: "bn_block2_28_branch2a"
  scale_param {
    bias_term: true
  }
}
layer {
  name: "relu_block2_28_branch2a"
  type: "ReLU"
  bottom: "bn_block2_28_branch2a"
  top: "bn_block2_28_branch2a"
}
layer {
  name: "conv_block2_28_branch2a"
  type: "Convolution"
  bottom: "bn_block2_28_branch2a"
  top: "conv_block2_28_branch2a"
  convolution_param {
    num_output: 16
    bias_term: false
    pad: 0
    kernel_size: 1
    stride: 1
  }
}
layer {
  name: "bn_block2_28_branch2b"
  type: "BatchNorm"
  bottom: "conv_block2_28_branch2a"
  top: "bn_block2_28_branch2b"
}
layer {
  name: "scale_block2_28_branch2b"
  type: "Scale"
  bottom: "bn_block2_28_branch2b"
  top: "bn_block2_28_branch2b"
  scale_param {
    bias_term: true
  }
}
layer {
  name: "relu_block2_28_branch2b"
  type: "ReLU"
  bottom: "bn_block2_28_branch2b"
  top: "bn_block2_28_branch2b"
}
layer {
  name: "conv_block2_28_branch2b"
  type: "Convolution"
  bottom: "bn_block2_28_branch2b"
  top: "conv_block2_28_branch2b"
  convolution_param {
    num_output: 16
    bias_term: false
    pad: 1
    kernel_size: 3
    stride: 1
  }
}
layer {
  name: "bn_block2_28_branch2c"
  type: "BatchNorm"
  bottom: "conv_block2_28_branch2b"
  top: "bn_block2_28_branch2c"
}
layer {
  name: "scale_block2_28_branch2c"
  type: "Scale"
  bottom: "bn_block2_28_branch2c"
  top: "bn_block2_28_branch2c"
  scale_param {
    bias_term: true
  }
}
layer {
  name: "relu_block2_28_branch2c"
  type: "ReLU"
  bottom: "bn_block2_28_branch2c"
  top: "bn_block2_28_branch2c"
}
layer {
  name: "conv_block2_28_branch2c"
  type: "Convolution"
  bottom: "bn_block2_28_branch2c"
  top: "conv_block2_28_branch2c"
  convolution_param {
    num_output: 64
    bias_term: false
    pad: 0
    kernel_size: 1
    stride: 1
  }
}
layer {
  name: "addition_block2_28"
  type: "Eltwise"
  bottom: "addition_block2_27"
  bottom: "conv_block2_28_branch2c"
  top: "addition_block2_28"
}
layer {
  name: "bn_block2_29_branch2a"
  type: "BatchNorm"
  bottom: "addition_block2_28"
  top: "bn_block2_29_branch2a"
}
layer {
  name: "scale_block2_29_branch2a"
  type: "Scale"
  bottom: "bn_block2_29_branch2a"
  top: "bn_block2_29_branch2a"
  scale_param {
    bias_term: true
  }
}
layer {
  name: "relu_block2_29_branch2a"
  type: "ReLU"
  bottom: "bn_block2_29_branch2a"
  top: "bn_block2_29_branch2a"
}
layer {
  name: "conv_block2_29_branch2a"
  type: "Convolution"
  bottom: "bn_block2_29_branch2a"
  top: "conv_block2_29_branch2a"
  convolution_param {
    num_output: 16
    bias_term: false
    pad: 0
    kernel_size: 1
    stride: 1
  }
}
layer {
  name: "bn_block2_29_branch2b"
  type: "BatchNorm"
  bottom: "conv_block2_29_branch2a"
  top: "bn_block2_29_branch2b"
}
layer {
  name: "scale_block2_29_branch2b"
  type: "Scale"
  bottom: "bn_block2_29_branch2b"
  top: "bn_block2_29_branch2b"
  scale_param {
    bias_term: true
  }
}
layer {
  name: "relu_block2_29_branch2b"
  type: "ReLU"
  bottom: "bn_block2_29_branch2b"
  top: "bn_block2_29_branch2b"
}
layer {
  name: "conv_block2_29_branch2b"
  type: "Convolution"
  bottom: "bn_block2_29_branch2b"
  top: "conv_block2_29_branch2b"
  convolution_param {
    num_output: 16
    bias_term: false
    pad: 1
    kernel_size: 3
    stride: 1
  }
}
layer {
  name: "bn_block2_29_branch2c"
  type: "BatchNorm"
  bottom: "conv_block2_29_branch2b"
  top: "bn_block2_29_branch2c"
}
layer {
  name: "scale_block2_29_branch2c"
  type: "Scale"
  bottom: "bn_block2_29_branch2c"
  top: "bn_block2_29_branch2c"
  scale_param {
    bias_term: true
  }
}
layer {
  name: "relu_block2_29_branch2c"
  type: "ReLU"
  bottom: "bn_block2_29_branch2c"
  top: "bn_block2_29_branch2c"
}
layer {
  name: "conv_block2_29_branch2c"
  type: "Convolution"
  bottom: "bn_block2_29_branch2c"
  top: "conv_block2_29_branch2c"
  convolution_param {
    num_output: 64
    bias_term: false
    pad: 0
    kernel_size: 1
    stride: 1
  }
}
layer {
  name: "addition_block2_29"
  type: "Eltwise"
  bottom: "addition_block2_28"
  bottom: "conv_block2_29_branch2c"
  top: "addition_block2_29"
}
layer {
  name: "bn_block2_30_branch2a"
  type: "BatchNorm"
  bottom: "addition_block2_29"
  top: "bn_block2_30_branch2a"
}
layer {
  name: "scale_block2_30_branch2a"
  type: "Scale"
  bottom: "bn_block2_30_branch2a"
  top: "bn_block2_30_branch2a"
  scale_param {
    bias_term: true
  }
}
layer {
  name: "relu_block2_30_branch2a"
  type: "ReLU"
  bottom: "bn_block2_30_branch2a"
  top: "bn_block2_30_branch2a"
}
layer {
  name: "conv_block2_30_branch2a"
  type: "Convolution"
  bottom: "bn_block2_30_branch2a"
  top: "conv_block2_30_branch2a"
  convolution_param {
    num_output: 16
    bias_term: false
    pad: 0
    kernel_size: 1
    stride: 1
  }
}
layer {
  name: "bn_block2_30_branch2b"
  type: "BatchNorm"
  bottom: "conv_block2_30_branch2a"
  top: "bn_block2_30_branch2b"
}
layer {
  name: "scale_block2_30_branch2b"
  type: "Scale"
  bottom: "bn_block2_30_branch2b"
  top: "bn_block2_30_branch2b"
  scale_param {
    bias_term: true
  }
}
layer {
  name: "relu_block2_30_branch2b"
  type: "ReLU"
  bottom: "bn_block2_30_branch2b"
  top: "bn_block2_30_branch2b"
}
layer {
  name: "conv_block2_30_branch2b"
  type: "Convolution"
  bottom: "bn_block2_30_branch2b"
  top: "conv_block2_30_branch2b"
  convolution_param {
    num_output: 16
    bias_term: false
    pad: 1
    kernel_size: 3
    stride: 1
  }
}
layer {
  name: "bn_block2_30_branch2c"
  type: "BatchNorm"
  bottom: "conv_block2_30_branch2b"
  top: "bn_block2_30_branch2c"
}
layer {
  name: "scale_block2_30_branch2c"
  type: "Scale"
  bottom: "bn_block2_30_branch2c"
  top: "bn_block2_30_branch2c"
  scale_param {
    bias_term: true
  }
}
layer {
  name: "relu_block2_30_branch2c"
  type: "ReLU"
  bottom: "bn_block2_30_branch2c"
  top: "bn_block2_30_branch2c"
}
layer {
  name: "conv_block2_30_branch2c"
  type: "Convolution"
  bottom: "bn_block2_30_branch2c"
  top: "conv_block2_30_branch2c"
  convolution_param {
    num_output: 64
    bias_term: false
    pad: 0
    kernel_size: 1
    stride: 1
  }
}
layer {
  name: "addition_block2_30"
  type: "Eltwise"
  bottom: "addition_block2_29"
  bottom: "conv_block2_30_branch2c"
  top: "addition_block2_30"
}
layer {
  name: "bn_block2_31_branch2a"
  type: "BatchNorm"
  bottom: "addition_block2_30"
  top: "bn_block2_31_branch2a"
}
layer {
  name: "scale_block2_31_branch2a"
  type: "Scale"
  bottom: "bn_block2_31_branch2a"
  top: "bn_block2_31_branch2a"
  scale_param {
    bias_term: true
  }
}
layer {
  name: "relu_block2_31_branch2a"
  type: "ReLU"
  bottom: "bn_block2_31_branch2a"
  top: "bn_block2_31_branch2a"
}
layer {
  name: "conv_block2_31_branch2a"
  type: "Convolution"
  bottom: "bn_block2_31_branch2a"
  top: "conv_block2_31_branch2a"
  convolution_param {
    num_output: 16
    bias_term: false
    pad: 0
    kernel_size: 1
    stride: 1
  }
}
layer {
  name: "bn_block2_31_branch2b"
  type: "BatchNorm"
  bottom: "conv_block2_31_branch2a"
  top: "bn_block2_31_branch2b"
}
layer {
  name: "scale_block2_31_branch2b"
  type: "Scale"
  bottom: "bn_block2_31_branch2b"
  top: "bn_block2_31_branch2b"
  scale_param {
    bias_term: true
  }
}
layer {
  name: "relu_block2_31_branch2b"
  type: "ReLU"
  bottom: "bn_block2_31_branch2b"
  top: "bn_block2_31_branch2b"
}
layer {
  name: "conv_block2_31_branch2b"
  type: "Convolution"
  bottom: "bn_block2_31_branch2b"
  top: "conv_block2_31_branch2b"
  convolution_param {
    num_output: 16
    bias_term: false
    pad: 1
    kernel_size: 3
    stride: 1
  }
}
layer {
  name: "bn_block2_31_branch2c"
  type: "BatchNorm"
  bottom: "conv_block2_31_branch2b"
  top: "bn_block2_31_branch2c"
}
layer {
  name: "scale_block2_31_branch2c"
  type: "Scale"
  bottom: "bn_block2_31_branch2c"
  top: "bn_block2_31_branch2c"
  scale_param {
    bias_term: true
  }
}
layer {
  name: "relu_block2_31_branch2c"
  type: "ReLU"
  bottom: "bn_block2_31_branch2c"
  top: "bn_block2_31_branch2c"
}
layer {
  name: "conv_block2_31_branch2c"
  type: "Convolution"
  bottom: "bn_block2_31_branch2c"
  top: "conv_block2_31_branch2c"
  convolution_param {
    num_output: 64
    bias_term: false
    pad: 0
    kernel_size: 1
    stride: 1
  }
}
layer {
  name: "addition_block2_31"
  type: "Eltwise"
  bottom: "addition_block2_30"
  bottom: "conv_block2_31_branch2c"
  top: "addition_block2_31"
}
layer {
  name: "bn_block2_32_branch2a"
  type: "BatchNorm"
  bottom: "addition_block2_31"
  top: "bn_block2_32_branch2a"
}
layer {
  name: "scale_block2_32_branch2a"
  type: "Scale"
  bottom: "bn_block2_32_branch2a"
  top: "bn_block2_32_branch2a"
  scale_param {
    bias_term: true
  }
}
layer {
  name: "relu_block2_32_branch2a"
  type: "ReLU"
  bottom: "bn_block2_32_branch2a"
  top: "bn_block2_32_branch2a"
}
layer {
  name: "conv_block2_32_branch2a"
  type: "Convolution"
  bottom: "bn_block2_32_branch2a"
  top: "conv_block2_32_branch2a"
  convolution_param {
    num_output: 16
    bias_term: false
    pad: 0
    kernel_size: 1
    stride: 1
  }
}
layer {
  name: "bn_block2_32_branch2b"
  type: "BatchNorm"
  bottom: "conv_block2_32_branch2a"
  top: "bn_block2_32_branch2b"
}
layer {
  name: "scale_block2_32_branch2b"
  type: "Scale"
  bottom: "bn_block2_32_branch2b"
  top: "bn_block2_32_branch2b"
  scale_param {
    bias_term: true
  }
}
layer {
  name: "relu_block2_32_branch2b"
  type: "ReLU"
  bottom: "bn_block2_32_branch2b"
  top: "bn_block2_32_branch2b"
}
layer {
  name: "conv_block2_32_branch2b"
  type: "Convolution"
  bottom: "bn_block2_32_branch2b"
  top: "conv_block2_32_branch2b"
  convolution_param {
    num_output: 16
    bias_term: false
    pad: 1
    kernel_size: 3
    stride: 1
  }
}
layer {
  name: "bn_block2_32_branch2c"
  type: "BatchNorm"
  bottom: "conv_block2_32_branch2b"
  top: "bn_block2_32_branch2c"
}
layer {
  name: "scale_block2_32_branch2c"
  type: "Scale"
  bottom: "bn_block2_32_branch2c"
  top: "bn_block2_32_branch2c"
  scale_param {
    bias_term: true
  }
}
layer {
  name: "relu_block2_32_branch2c"
  type: "ReLU"
  bottom: "bn_block2_32_branch2c"
  top: "bn_block2_32_branch2c"
}
layer {
  name: "conv_block2_32_branch2c"
  type: "Convolution"
  bottom: "bn_block2_32_branch2c"
  top: "conv_block2_32_branch2c"
  convolution_param {
    num_output: 64
    bias_term: false
    pad: 0
    kernel_size: 1
    stride: 1
  }
}
layer {
  name: "addition_block2_32"
  type: "Eltwise"
  bottom: "addition_block2_31"
  bottom: "conv_block2_32_branch2c"
  top: "addition_block2_32"
}
layer {
  name: "bn_block2_33_branch2a"
  type: "BatchNorm"
  bottom: "addition_block2_32"
  top: "bn_block2_33_branch2a"
}
layer {
  name: "scale_block2_33_branch2a"
  type: "Scale"
  bottom: "bn_block2_33_branch2a"
  top: "bn_block2_33_branch2a"
  scale_param {
    bias_term: true
  }
}
layer {
  name: "relu_block2_33_branch2a"
  type: "ReLU"
  bottom: "bn_block2_33_branch2a"
  top: "bn_block2_33_branch2a"
}
layer {
  name: "conv_block2_33_branch2a"
  type: "Convolution"
  bottom: "bn_block2_33_branch2a"
  top: "conv_block2_33_branch2a"
  convolution_param {
    num_output: 16
    bias_term: false
    pad: 0
    kernel_size: 1
    stride: 1
  }
}
layer {
  name: "bn_block2_33_branch2b"
  type: "BatchNorm"
  bottom: "conv_block2_33_branch2a"
  top: "bn_block2_33_branch2b"
}
layer {
  name: "scale_block2_33_branch2b"
  type: "Scale"
  bottom: "bn_block2_33_branch2b"
  top: "bn_block2_33_branch2b"
  scale_param {
    bias_term: true
  }
}
layer {
  name: "relu_block2_33_branch2b"
  type: "ReLU"
  bottom: "bn_block2_33_branch2b"
  top: "bn_block2_33_branch2b"
}
layer {
  name: "conv_block2_33_branch2b"
  type: "Convolution"
  bottom: "bn_block2_33_branch2b"
  top: "conv_block2_33_branch2b"
  convolution_param {
    num_output: 16
    bias_term: false
    pad: 1
    kernel_size: 3
    stride: 1
  }
}
layer {
  name: "bn_block2_33_branch2c"
  type: "BatchNorm"
  bottom: "conv_block2_33_branch2b"
  top: "bn_block2_33_branch2c"
}
layer {
  name: "scale_block2_33_branch2c"
  type: "Scale"
  bottom: "bn_block2_33_branch2c"
  top: "bn_block2_33_branch2c"
  scale_param {
    bias_term: true
  }
}
layer {
  name: "relu_block2_33_branch2c"
  type: "ReLU"
  bottom: "bn_block2_33_branch2c"
  top: "bn_block2_33_branch2c"
}
layer {
  name: "conv_block2_33_branch2c"
  type: "Convolution"
  bottom: "bn_block2_33_branch2c"
  top: "conv_block2_33_branch2c"
  convolution_param {
    num_output: 64
    bias_term: false
    pad: 0
    kernel_size: 1
    stride: 1
  }
}
layer {
  name: "addition_block2_33"
  type: "Eltwise"
  bottom: "addition_block2_32"
  bottom: "conv_block2_33_branch2c"
  top: "addition_block2_33"
}
layer {
  name: "bn_block2_34_branch2a"
  type: "BatchNorm"
  bottom: "addition_block2_33"
  top: "bn_block2_34_branch2a"
}
layer {
  name: "scale_block2_34_branch2a"
  type: "Scale"
  bottom: "bn_block2_34_branch2a"
  top: "bn_block2_34_branch2a"
  scale_param {
    bias_term: true
  }
}
layer {
  name: "relu_block2_34_branch2a"
  type: "ReLU"
  bottom: "bn_block2_34_branch2a"
  top: "bn_block2_34_branch2a"
}
layer {
  name: "conv_block2_34_branch2a"
  type: "Convolution"
  bottom: "bn_block2_34_branch2a"
  top: "conv_block2_34_branch2a"
  convolution_param {
    num_output: 16
    bias_term: false
    pad: 0
    kernel_size: 1
    stride: 1
  }
}
layer {
  name: "bn_block2_34_branch2b"
  type: "BatchNorm"
  bottom: "conv_block2_34_branch2a"
  top: "bn_block2_34_branch2b"
}
layer {
  name: "scale_block2_34_branch2b"
  type: "Scale"
  bottom: "bn_block2_34_branch2b"
  top: "bn_block2_34_branch2b"
  scale_param {
    bias_term: true
  }
}
layer {
  name: "relu_block2_34_branch2b"
  type: "ReLU"
  bottom: "bn_block2_34_branch2b"
  top: "bn_block2_34_branch2b"
}
layer {
  name: "conv_block2_34_branch2b"
  type: "Convolution"
  bottom: "bn_block2_34_branch2b"
  top: "conv_block2_34_branch2b"
  convolution_param {
    num_output: 16
    bias_term: false
    pad: 1
    kernel_size: 3
    stride: 1
  }
}
layer {
  name: "bn_block2_34_branch2c"
  type: "BatchNorm"
  bottom: "conv_block2_34_branch2b"
  top: "bn_block2_34_branch2c"
}
layer {
  name: "scale_block2_34_branch2c"
  type: "Scale"
  bottom: "bn_block2_34_branch2c"
  top: "bn_block2_34_branch2c"
  scale_param {
    bias_term: true
  }
}
layer {
  name: "relu_block2_34_branch2c"
  type: "ReLU"
  bottom: "bn_block2_34_branch2c"
  top: "bn_block2_34_branch2c"
}
layer {
  name: "conv_block2_34_branch2c"
  type: "Convolution"
  bottom: "bn_block2_34_branch2c"
  top: "conv_block2_34_branch2c"
  convolution_param {
    num_output: 64
    bias_term: false
    pad: 0
    kernel_size: 1
    stride: 1
  }
}
layer {
  name: "addition_block2_34"
  type: "Eltwise"
  bottom: "addition_block2_33"
  bottom: "conv_block2_34_branch2c"
  top: "addition_block2_34"
}
layer {
  name: "bn_block2_35_branch2a"
  type: "BatchNorm"
  bottom: "addition_block2_34"
  top: "bn_block2_35_branch2a"
}
layer {
  name: "scale_block2_35_branch2a"
  type: "Scale"
  bottom: "bn_block2_35_branch2a"
  top: "bn_block2_35_branch2a"
  scale_param {
    bias_term: true
  }
}
layer {
  name: "relu_block2_35_branch2a"
  type: "ReLU"
  bottom: "bn_block2_35_branch2a"
  top: "bn_block2_35_branch2a"
}
layer {
  name: "conv_block2_35_branch2a"
  type: "Convolution"
  bottom: "bn_block2_35_branch2a"
  top: "conv_block2_35_branch2a"
  convolution_param {
    num_output: 16
    bias_term: false
    pad: 0
    kernel_size: 1
    stride: 1
  }
}
layer {
  name: "bn_block2_35_branch2b"
  type: "BatchNorm"
  bottom: "conv_block2_35_branch2a"
  top: "bn_block2_35_branch2b"
}
layer {
  name: "scale_block2_35_branch2b"
  type: "Scale"
  bottom: "bn_block2_35_branch2b"
  top: "bn_block2_35_branch2b"
  scale_param {
    bias_term: true
  }
}
layer {
  name: "relu_block2_35_branch2b"
  type: "ReLU"
  bottom: "bn_block2_35_branch2b"
  top: "bn_block2_35_branch2b"
}
layer {
  name: "conv_block2_35_branch2b"
  type: "Convolution"
  bottom: "bn_block2_35_branch2b"
  top: "conv_block2_35_branch2b"
  convolution_param {
    num_output: 16
    bias_term: false
    pad: 1
    kernel_size: 3
    stride: 1
  }
}
layer {
  name: "bn_block2_35_branch2c"
  type: "BatchNorm"
  bottom: "conv_block2_35_branch2b"
  top: "bn_block2_35_branch2c"
}
layer {
  name: "scale_block2_35_branch2c"
  type: "Scale"
  bottom: "bn_block2_35_branch2c"
  top: "bn_block2_35_branch2c"
  scale_param {
    bias_term: true
  }
}
layer {
  name: "relu_block2_35_branch2c"
  type: "ReLU"
  bottom: "bn_block2_35_branch2c"
  top: "bn_block2_35_branch2c"
}
layer {
  name: "conv_block2_35_branch2c"
  type: "Convolution"
  bottom: "bn_block2_35_branch2c"
  top: "conv_block2_35_branch2c"
  convolution_param {
    num_output: 64
    bias_term: false
    pad: 0
    kernel_size: 1
    stride: 1
  }
}
layer {
  name: "addition_block2_35"
  type: "Eltwise"
  bottom: "addition_block2_34"
  bottom: "conv_block2_35_branch2c"
  top: "addition_block2_35"
}
layer {
  name: "bn_block2_36_branch2a"
  type: "BatchNorm"
  bottom: "addition_block2_35"
  top: "bn_block2_36_branch2a"
}
layer {
  name: "scale_block2_36_branch2a"
  type: "Scale"
  bottom: "bn_block2_36_branch2a"
  top: "bn_block2_36_branch2a"
  scale_param {
    bias_term: true
  }
}
layer {
  name: "relu_block2_36_branch2a"
  type: "ReLU"
  bottom: "bn_block2_36_branch2a"
  top: "bn_block2_36_branch2a"
}
layer {
  name: "conv_block2_36_branch2a"
  type: "Convolution"
  bottom: "bn_block2_36_branch2a"
  top: "conv_block2_36_branch2a"
  convolution_param {
    num_output: 16
    bias_term: false
    pad: 0
    kernel_size: 1
    stride: 1
  }
}
layer {
  name: "bn_block2_36_branch2b"
  type: "BatchNorm"
  bottom: "conv_block2_36_branch2a"
  top: "bn_block2_36_branch2b"
}
layer {
  name: "scale_block2_36_branch2b"
  type: "Scale"
  bottom: "bn_block2_36_branch2b"
  top: "bn_block2_36_branch2b"
  scale_param {
    bias_term: true
  }
}
layer {
  name: "relu_block2_36_branch2b"
  type: "ReLU"
  bottom: "bn_block2_36_branch2b"
  top: "bn_block2_36_branch2b"
}
layer {
  name: "conv_block2_36_branch2b"
  type: "Convolution"
  bottom: "bn_block2_36_branch2b"
  top: "conv_block2_36_branch2b"
  convolution_param {
    num_output: 16
    bias_term: false
    pad: 1
    kernel_size: 3
    stride: 1
  }
}
layer {
  name: "bn_block2_36_branch2c"
  type: "BatchNorm"
  bottom: "conv_block2_36_branch2b"
  top: "bn_block2_36_branch2c"
}
layer {
  name: "scale_block2_36_branch2c"
  type: "Scale"
  bottom: "bn_block2_36_branch2c"
  top: "bn_block2_36_branch2c"
  scale_param {
    bias_term: true
  }
}
layer {
  name: "relu_block2_36_branch2c"
  type: "ReLU"
  bottom: "bn_block2_36_branch2c"
  top: "bn_block2_36_branch2c"
}
layer {
  name: "conv_block2_36_branch2c"
  type: "Convolution"
  bottom: "bn_block2_36_branch2c"
  top: "conv_block2_36_branch2c"
  convolution_param {
    num_output: 64
    bias_term: false
    pad: 0
    kernel_size: 1
    stride: 1
  }
}
layer {
  name: "addition_block2_36"
  type: "Eltwise"
  bottom: "addition_block2_35"
  bottom: "conv_block2_36_branch2c"
  top: "addition_block2_36"
}
layer {
  name: "bn_block2_37_branch2a"
  type: "BatchNorm"
  bottom: "addition_block2_36"
  top: "bn_block2_37_branch2a"
}
layer {
  name: "scale_block2_37_branch2a"
  type: "Scale"
  bottom: "bn_block2_37_branch2a"
  top: "bn_block2_37_branch2a"
  scale_param {
    bias_term: true
  }
}
layer {
  name: "relu_block2_37_branch2a"
  type: "ReLU"
  bottom: "bn_block2_37_branch2a"
  top: "bn_block2_37_branch2a"
}
layer {
  name: "conv_block2_37_branch2a"
  type: "Convolution"
  bottom: "bn_block2_37_branch2a"
  top: "conv_block2_37_branch2a"
  convolution_param {
    num_output: 16
    bias_term: false
    pad: 0
    kernel_size: 1
    stride: 1
  }
}
layer {
  name: "bn_block2_37_branch2b"
  type: "BatchNorm"
  bottom: "conv_block2_37_branch2a"
  top: "bn_block2_37_branch2b"
}
layer {
  name: "scale_block2_37_branch2b"
  type: "Scale"
  bottom: "bn_block2_37_branch2b"
  top: "bn_block2_37_branch2b"
  scale_param {
    bias_term: true
  }
}
layer {
  name: "relu_block2_37_branch2b"
  type: "ReLU"
  bottom: "bn_block2_37_branch2b"
  top: "bn_block2_37_branch2b"
}
layer {
  name: "conv_block2_37_branch2b"
  type: "Convolution"
  bottom: "bn_block2_37_branch2b"
  top: "conv_block2_37_branch2b"
  convolution_param {
    num_output: 16
    bias_term: false
    pad: 1
    kernel_size: 3
    stride: 1
  }
}
layer {
  name: "bn_block2_37_branch2c"
  type: "BatchNorm"
  bottom: "conv_block2_37_branch2b"
  top: "bn_block2_37_branch2c"
}
layer {
  name: "scale_block2_37_branch2c"
  type: "Scale"
  bottom: "bn_block2_37_branch2c"
  top: "bn_block2_37_branch2c"
  scale_param {
    bias_term: true
  }
}
layer {
  name: "relu_block2_37_branch2c"
  type: "ReLU"
  bottom: "bn_block2_37_branch2c"
  top: "bn_block2_37_branch2c"
}
layer {
  name: "conv_block2_37_branch2c"
  type: "Convolution"
  bottom: "bn_block2_37_branch2c"
  top: "conv_block2_37_branch2c"
  convolution_param {
    num_output: 64
    bias_term: false
    pad: 0
    kernel_size: 1
    stride: 1
  }
}
layer {
  name: "addition_block2_37"
  type: "Eltwise"
  bottom: "addition_block2_36"
  bottom: "conv_block2_37_branch2c"
  top: "addition_block2_37"
}
layer {
  name: "bn_block2_38_branch2a"
  type: "BatchNorm"
  bottom: "addition_block2_37"
  top: "bn_block2_38_branch2a"
}
layer {
  name: "scale_block2_38_branch2a"
  type: "Scale"
  bottom: "bn_block2_38_branch2a"
  top: "bn_block2_38_branch2a"
  scale_param {
    bias_term: true
  }
}
layer {
  name: "relu_block2_38_branch2a"
  type: "ReLU"
  bottom: "bn_block2_38_branch2a"
  top: "bn_block2_38_branch2a"
}
layer {
  name: "conv_block2_38_branch2a"
  type: "Convolution"
  bottom: "bn_block2_38_branch2a"
  top: "conv_block2_38_branch2a"
  convolution_param {
    num_output: 16
    bias_term: false
    pad: 0
    kernel_size: 1
    stride: 1
  }
}
layer {
  name: "bn_block2_38_branch2b"
  type: "BatchNorm"
  bottom: "conv_block2_38_branch2a"
  top: "bn_block2_38_branch2b"
}
layer {
  name: "scale_block2_38_branch2b"
  type: "Scale"
  bottom: "bn_block2_38_branch2b"
  top: "bn_block2_38_branch2b"
  scale_param {
    bias_term: true
  }
}
layer {
  name: "relu_block2_38_branch2b"
  type: "ReLU"
  bottom: "bn_block2_38_branch2b"
  top: "bn_block2_38_branch2b"
}
layer {
  name: "conv_block2_38_branch2b"
  type: "Convolution"
  bottom: "bn_block2_38_branch2b"
  top: "conv_block2_38_branch2b"
  convolution_param {
    num_output: 16
    bias_term: false
    pad: 1
    kernel_size: 3
    stride: 1
  }
}
layer {
  name: "bn_block2_38_branch2c"
  type: "BatchNorm"
  bottom: "conv_block2_38_branch2b"
  top: "bn_block2_38_branch2c"
}
layer {
  name: "scale_block2_38_branch2c"
  type: "Scale"
  bottom: "bn_block2_38_branch2c"
  top: "bn_block2_38_branch2c"
  scale_param {
    bias_term: true
  }
}
layer {
  name: "relu_block2_38_branch2c"
  type: "ReLU"
  bottom: "bn_block2_38_branch2c"
  top: "bn_block2_38_branch2c"
}
layer {
  name: "conv_block2_38_branch2c"
  type: "Convolution"
  bottom: "bn_block2_38_branch2c"
  top: "conv_block2_38_branch2c"
  convolution_param {
    num_output: 64
    bias_term: false
    pad: 0
    kernel_size: 1
    stride: 1
  }
}
layer {
  name: "addition_block2_38"
  type: "Eltwise"
  bottom: "addition_block2_37"
  bottom: "conv_block2_38_branch2c"
  top: "addition_block2_38"
}
layer {
  name: "bn_block2_39_branch2a"
  type: "BatchNorm"
  bottom: "addition_block2_38"
  top: "bn_block2_39_branch2a"
}
layer {
  name: "scale_block2_39_branch2a"
  type: "Scale"
  bottom: "bn_block2_39_branch2a"
  top: "bn_block2_39_branch2a"
  scale_param {
    bias_term: true
  }
}
layer {
  name: "relu_block2_39_branch2a"
  type: "ReLU"
  bottom: "bn_block2_39_branch2a"
  top: "bn_block2_39_branch2a"
}
layer {
  name: "conv_block2_39_branch2a"
  type: "Convolution"
  bottom: "bn_block2_39_branch2a"
  top: "conv_block2_39_branch2a"
  convolution_param {
    num_output: 16
    bias_term: false
    pad: 0
    kernel_size: 1
    stride: 1
  }
}
layer {
  name: "bn_block2_39_branch2b"
  type: "BatchNorm"
  bottom: "conv_block2_39_branch2a"
  top: "bn_block2_39_branch2b"
}
layer {
  name: "scale_block2_39_branch2b"
  type: "Scale"
  bottom: "bn_block2_39_branch2b"
  top: "bn_block2_39_branch2b"
  scale_param {
    bias_term: true
  }
}
layer {
  name: "relu_block2_39_branch2b"
  type: "ReLU"
  bottom: "bn_block2_39_branch2b"
  top: "bn_block2_39_branch2b"
}
layer {
  name: "conv_block2_39_branch2b"
  type: "Convolution"
  bottom: "bn_block2_39_branch2b"
  top: "conv_block2_39_branch2b"
  convolution_param {
    num_output: 16
    bias_term: false
    pad: 1
    kernel_size: 3
    stride: 1
  }
}
layer {
  name: "bn_block2_39_branch2c"
  type: "BatchNorm"
  bottom: "conv_block2_39_branch2b"
  top: "bn_block2_39_branch2c"
}
layer {
  name: "scale_block2_39_branch2c"
  type: "Scale"
  bottom: "bn_block2_39_branch2c"
  top: "bn_block2_39_branch2c"
  scale_param {
    bias_term: true
  }
}
layer {
  name: "relu_block2_39_branch2c"
  type: "ReLU"
  bottom: "bn_block2_39_branch2c"
  top: "bn_block2_39_branch2c"
}
layer {
  name: "conv_block2_39_branch2c"
  type: "Convolution"
  bottom: "bn_block2_39_branch2c"
  top: "conv_block2_39_branch2c"
  convolution_param {
    num_output: 64
    bias_term: false
    pad: 0
    kernel_size: 1
    stride: 1
  }
}
layer {
  name: "addition_block2_39"
  type: "Eltwise"
  bottom: "addition_block2_38"
  bottom: "conv_block2_39_branch2c"
  top: "addition_block2_39"
}
layer {
  name: "bn_block2_40_branch2a"
  type: "BatchNorm"
  bottom: "addition_block2_39"
  top: "bn_block2_40_branch2a"
}
layer {
  name: "scale_block2_40_branch2a"
  type: "Scale"
  bottom: "bn_block2_40_branch2a"
  top: "bn_block2_40_branch2a"
  scale_param {
    bias_term: true
  }
}
layer {
  name: "relu_block2_40_branch2a"
  type: "ReLU"
  bottom: "bn_block2_40_branch2a"
  top: "bn_block2_40_branch2a"
}
layer {
  name: "conv_block2_40_branch2a"
  type: "Convolution"
  bottom: "bn_block2_40_branch2a"
  top: "conv_block2_40_branch2a"
  convolution_param {
    num_output: 16
    bias_term: false
    pad: 0
    kernel_size: 1
    stride: 1
  }
}
layer {
  name: "bn_block2_40_branch2b"
  type: "BatchNorm"
  bottom: "conv_block2_40_branch2a"
  top: "bn_block2_40_branch2b"
}
layer {
  name: "scale_block2_40_branch2b"
  type: "Scale"
  bottom: "bn_block2_40_branch2b"
  top: "bn_block2_40_branch2b"
  scale_param {
    bias_term: true
  }
}
layer {
  name: "relu_block2_40_branch2b"
  type: "ReLU"
  bottom: "bn_block2_40_branch2b"
  top: "bn_block2_40_branch2b"
}
layer {
  name: "conv_block2_40_branch2b"
  type: "Convolution"
  bottom: "bn_block2_40_branch2b"
  top: "conv_block2_40_branch2b"
  convolution_param {
    num_output: 16
    bias_term: false
    pad: 1
    kernel_size: 3
    stride: 1
  }
}
layer {
  name: "bn_block2_40_branch2c"
  type: "BatchNorm"
  bottom: "conv_block2_40_branch2b"
  top: "bn_block2_40_branch2c"
}
layer {
  name: "scale_block2_40_branch2c"
  type: "Scale"
  bottom: "bn_block2_40_branch2c"
  top: "bn_block2_40_branch2c"
  scale_param {
    bias_term: true
  }
}
layer {
  name: "relu_block2_40_branch2c"
  type: "ReLU"
  bottom: "bn_block2_40_branch2c"
  top: "bn_block2_40_branch2c"
}
layer {
  name: "conv_block2_40_branch2c"
  type: "Convolution"
  bottom: "bn_block2_40_branch2c"
  top: "conv_block2_40_branch2c"
  convolution_param {
    num_output: 64
    bias_term: false
    pad: 0
    kernel_size: 1
    stride: 1
  }
}
layer {
  name: "addition_block2_40"
  type: "Eltwise"
  bottom: "addition_block2_39"
  bottom: "conv_block2_40_branch2c"
  top: "addition_block2_40"
}
layer {
  name: "bn_block2_41_branch2a"
  type: "BatchNorm"
  bottom: "addition_block2_40"
  top: "bn_block2_41_branch2a"
}
layer {
  name: "scale_block2_41_branch2a"
  type: "Scale"
  bottom: "bn_block2_41_branch2a"
  top: "bn_block2_41_branch2a"
  scale_param {
    bias_term: true
  }
}
layer {
  name: "relu_block2_41_branch2a"
  type: "ReLU"
  bottom: "bn_block2_41_branch2a"
  top: "bn_block2_41_branch2a"
}
layer {
  name: "conv_block2_41_branch2a"
  type: "Convolution"
  bottom: "bn_block2_41_branch2a"
  top: "conv_block2_41_branch2a"
  convolution_param {
    num_output: 16
    bias_term: false
    pad: 0
    kernel_size: 1
    stride: 1
  }
}
layer {
  name: "bn_block2_41_branch2b"
  type: "BatchNorm"
  bottom: "conv_block2_41_branch2a"
  top: "bn_block2_41_branch2b"
}
layer {
  name: "scale_block2_41_branch2b"
  type: "Scale"
  bottom: "bn_block2_41_branch2b"
  top: "bn_block2_41_branch2b"
  scale_param {
    bias_term: true
  }
}
layer {
  name: "relu_block2_41_branch2b"
  type: "ReLU"
  bottom: "bn_block2_41_branch2b"
  top: "bn_block2_41_branch2b"
}
layer {
  name: "conv_block2_41_branch2b"
  type: "Convolution"
  bottom: "bn_block2_41_branch2b"
  top: "conv_block2_41_branch2b"
  convolution_param {
    num_output: 16
    bias_term: false
    pad: 1
    kernel_size: 3
    stride: 1
  }
}
layer {
  name: "bn_block2_41_branch2c"
  type: "BatchNorm"
  bottom: "conv_block2_41_branch2b"
  top: "bn_block2_41_branch2c"
}
layer {
  name: "scale_block2_41_branch2c"
  type: "Scale"
  bottom: "bn_block2_41_branch2c"
  top: "bn_block2_41_branch2c"
  scale_param {
    bias_term: true
  }
}
layer {
  name: "relu_block2_41_branch2c"
  type: "ReLU"
  bottom: "bn_block2_41_branch2c"
  top: "bn_block2_41_branch2c"
}
layer {
  name: "conv_block2_41_branch2c"
  type: "Convolution"
  bottom: "bn_block2_41_branch2c"
  top: "conv_block2_41_branch2c"
  convolution_param {
    num_output: 64
    bias_term: false
    pad: 0
    kernel_size: 1
    stride: 1
  }
}
layer {
  name: "addition_block2_41"
  type: "Eltwise"
  bottom: "addition_block2_40"
  bottom: "conv_block2_41_branch2c"
  top: "addition_block2_41"
}
layer {
  name: "bn_block2_42_branch2a"
  type: "BatchNorm"
  bottom: "addition_block2_41"
  top: "bn_block2_42_branch2a"
}
layer {
  name: "scale_block2_42_branch2a"
  type: "Scale"
  bottom: "bn_block2_42_branch2a"
  top: "bn_block2_42_branch2a"
  scale_param {
    bias_term: true
  }
}
layer {
  name: "relu_block2_42_branch2a"
  type: "ReLU"
  bottom: "bn_block2_42_branch2a"
  top: "bn_block2_42_branch2a"
}
layer {
  name: "conv_block2_42_branch2a"
  type: "Convolution"
  bottom: "bn_block2_42_branch2a"
  top: "conv_block2_42_branch2a"
  convolution_param {
    num_output: 16
    bias_term: false
    pad: 0
    kernel_size: 1
    stride: 1
  }
}
layer {
  name: "bn_block2_42_branch2b"
  type: "BatchNorm"
  bottom: "conv_block2_42_branch2a"
  top: "bn_block2_42_branch2b"
}
layer {
  name: "scale_block2_42_branch2b"
  type: "Scale"
  bottom: "bn_block2_42_branch2b"
  top: "bn_block2_42_branch2b"
  scale_param {
    bias_term: true
  }
}
layer {
  name: "relu_block2_42_branch2b"
  type: "ReLU"
  bottom: "bn_block2_42_branch2b"
  top: "bn_block2_42_branch2b"
}
layer {
  name: "conv_block2_42_branch2b"
  type: "Convolution"
  bottom: "bn_block2_42_branch2b"
  top: "conv_block2_42_branch2b"
  convolution_param {
    num_output: 16
    bias_term: false
    pad: 1
    kernel_size: 3
    stride: 1
  }
}
layer {
  name: "bn_block2_42_branch2c"
  type: "BatchNorm"
  bottom: "conv_block2_42_branch2b"
  top: "bn_block2_42_branch2c"
}
layer {
  name: "scale_block2_42_branch2c"
  type: "Scale"
  bottom: "bn_block2_42_branch2c"
  top: "bn_block2_42_branch2c"
  scale_param {
    bias_term: true
  }
}
layer {
  name: "relu_block2_42_branch2c"
  type: "ReLU"
  bottom: "bn_block2_42_branch2c"
  top: "bn_block2_42_branch2c"
}
layer {
  name: "conv_block2_42_branch2c"
  type: "Convolution"
  bottom: "bn_block2_42_branch2c"
  top: "conv_block2_42_branch2c"
  convolution_param {
    num_output: 64
    bias_term: false
    pad: 0
    kernel_size: 1
    stride: 1
  }
}
layer {
  name: "addition_block2_42"
  type: "Eltwise"
  bottom: "addition_block2_41"
  bottom: "conv_block2_42_branch2c"
  top: "addition_block2_42"
}
layer {
  name: "bn_block2_43_branch2a"
  type: "BatchNorm"
  bottom: "addition_block2_42"
  top: "bn_block2_43_branch2a"
}
layer {
  name: "scale_block2_43_branch2a"
  type: "Scale"
  bottom: "bn_block2_43_branch2a"
  top: "bn_block2_43_branch2a"
  scale_param {
    bias_term: true
  }
}
layer {
  name: "relu_block2_43_branch2a"
  type: "ReLU"
  bottom: "bn_block2_43_branch2a"
  top: "bn_block2_43_branch2a"
}
layer {
  name: "conv_block2_43_branch2a"
  type: "Convolution"
  bottom: "bn_block2_43_branch2a"
  top: "conv_block2_43_branch2a"
  convolution_param {
    num_output: 16
    bias_term: false
    pad: 0
    kernel_size: 1
    stride: 1
  }
}
layer {
  name: "bn_block2_43_branch2b"
  type: "BatchNorm"
  bottom: "conv_block2_43_branch2a"
  top: "bn_block2_43_branch2b"
}
layer {
  name: "scale_block2_43_branch2b"
  type: "Scale"
  bottom: "bn_block2_43_branch2b"
  top: "bn_block2_43_branch2b"
  scale_param {
    bias_term: true
  }
}
layer {
  name: "relu_block2_43_branch2b"
  type: "ReLU"
  bottom: "bn_block2_43_branch2b"
  top: "bn_block2_43_branch2b"
}
layer {
  name: "conv_block2_43_branch2b"
  type: "Convolution"
  bottom: "bn_block2_43_branch2b"
  top: "conv_block2_43_branch2b"
  convolution_param {
    num_output: 16
    bias_term: false
    pad: 1
    kernel_size: 3
    stride: 1
  }
}
layer {
  name: "bn_block2_43_branch2c"
  type: "BatchNorm"
  bottom: "conv_block2_43_branch2b"
  top: "bn_block2_43_branch2c"
}
layer {
  name: "scale_block2_43_branch2c"
  type: "Scale"
  bottom: "bn_block2_43_branch2c"
  top: "bn_block2_43_branch2c"
  scale_param {
    bias_term: true
  }
}
layer {
  name: "relu_block2_43_branch2c"
  type: "ReLU"
  bottom: "bn_block2_43_branch2c"
  top: "bn_block2_43_branch2c"
}
layer {
  name: "conv_block2_43_branch2c"
  type: "Convolution"
  bottom: "bn_block2_43_branch2c"
  top: "conv_block2_43_branch2c"
  convolution_param {
    num_output: 64
    bias_term: false
    pad: 0
    kernel_size: 1
    stride: 1
  }
}
layer {
  name: "addition_block2_43"
  type: "Eltwise"
  bottom: "addition_block2_42"
  bottom: "conv_block2_43_branch2c"
  top: "addition_block2_43"
}
layer {
  name: "bn_block2_44_branch2a"
  type: "BatchNorm"
  bottom: "addition_block2_43"
  top: "bn_block2_44_branch2a"
}
layer {
  name: "scale_block2_44_branch2a"
  type: "Scale"
  bottom: "bn_block2_44_branch2a"
  top: "bn_block2_44_branch2a"
  scale_param {
    bias_term: true
  }
}
layer {
  name: "relu_block2_44_branch2a"
  type: "ReLU"
  bottom: "bn_block2_44_branch2a"
  top: "bn_block2_44_branch2a"
}
layer {
  name: "conv_block2_44_branch2a"
  type: "Convolution"
  bottom: "bn_block2_44_branch2a"
  top: "conv_block2_44_branch2a"
  convolution_param {
    num_output: 16
    bias_term: false
    pad: 0
    kernel_size: 1
    stride: 1
  }
}
layer {
  name: "bn_block2_44_branch2b"
  type: "BatchNorm"
  bottom: "conv_block2_44_branch2a"
  top: "bn_block2_44_branch2b"
}
layer {
  name: "scale_block2_44_branch2b"
  type: "Scale"
  bottom: "bn_block2_44_branch2b"
  top: "bn_block2_44_branch2b"
  scale_param {
    bias_term: true
  }
}
layer {
  name: "relu_block2_44_branch2b"
  type: "ReLU"
  bottom: "bn_block2_44_branch2b"
  top: "bn_block2_44_branch2b"
}
layer {
  name: "conv_block2_44_branch2b"
  type: "Convolution"
  bottom: "bn_block2_44_branch2b"
  top: "conv_block2_44_branch2b"
  convolution_param {
    num_output: 16
    bias_term: false
    pad: 1
    kernel_size: 3
    stride: 1
  }
}
layer {
  name: "bn_block2_44_branch2c"
  type: "BatchNorm"
  bottom: "conv_block2_44_branch2b"
  top: "bn_block2_44_branch2c"
}
layer {
  name: "scale_block2_44_branch2c"
  type: "Scale"
  bottom: "bn_block2_44_branch2c"
  top: "bn_block2_44_branch2c"
  scale_param {
    bias_term: true
  }
}
layer {
  name: "relu_block2_44_branch2c"
  type: "ReLU"
  bottom: "bn_block2_44_branch2c"
  top: "bn_block2_44_branch2c"
}
layer {
  name: "conv_block2_44_branch2c"
  type: "Convolution"
  bottom: "bn_block2_44_branch2c"
  top: "conv_block2_44_branch2c"
  convolution_param {
    num_output: 64
    bias_term: false
    pad: 0
    kernel_size: 1
    stride: 1
  }
}
layer {
  name: "addition_block2_44"
  type: "Eltwise"
  bottom: "addition_block2_43"
  bottom: "conv_block2_44_branch2c"
  top: "addition_block2_44"
}
layer {
  name: "bn_block2_45_branch2a"
  type: "BatchNorm"
  bottom: "addition_block2_44"
  top: "bn_block2_45_branch2a"
}
layer {
  name: "scale_block2_45_branch2a"
  type: "Scale"
  bottom: "bn_block2_45_branch2a"
  top: "bn_block2_45_branch2a"
  scale_param {
    bias_term: true
  }
}
layer {
  name: "relu_block2_45_branch2a"
  type: "ReLU"
  bottom: "bn_block2_45_branch2a"
  top: "bn_block2_45_branch2a"
}
layer {
  name: "conv_block2_45_branch2a"
  type: "Convolution"
  bottom: "bn_block2_45_branch2a"
  top: "conv_block2_45_branch2a"
  convolution_param {
    num_output: 16
    bias_term: false
    pad: 0
    kernel_size: 1
    stride: 1
  }
}
layer {
  name: "bn_block2_45_branch2b"
  type: "BatchNorm"
  bottom: "conv_block2_45_branch2a"
  top: "bn_block2_45_branch2b"
}
layer {
  name: "scale_block2_45_branch2b"
  type: "Scale"
  bottom: "bn_block2_45_branch2b"
  top: "bn_block2_45_branch2b"
  scale_param {
    bias_term: true
  }
}
layer {
  name: "relu_block2_45_branch2b"
  type: "ReLU"
  bottom: "bn_block2_45_branch2b"
  top: "bn_block2_45_branch2b"
}
layer {
  name: "conv_block2_45_branch2b"
  type: "Convolution"
  bottom: "bn_block2_45_branch2b"
  top: "conv_block2_45_branch2b"
  convolution_param {
    num_output: 16
    bias_term: false
    pad: 1
    kernel_size: 3
    stride: 1
  }
}
layer {
  name: "bn_block2_45_branch2c"
  type: "BatchNorm"
  bottom: "conv_block2_45_branch2b"
  top: "bn_block2_45_branch2c"
}
layer {
  name: "scale_block2_45_branch2c"
  type: "Scale"
  bottom: "bn_block2_45_branch2c"
  top: "bn_block2_45_branch2c"
  scale_param {
    bias_term: true
  }
}
layer {
  name: "relu_block2_45_branch2c"
  type: "ReLU"
  bottom: "bn_block2_45_branch2c"
  top: "bn_block2_45_branch2c"
}
layer {
  name: "conv_block2_45_branch2c"
  type: "Convolution"
  bottom: "bn_block2_45_branch2c"
  top: "conv_block2_45_branch2c"
  convolution_param {
    num_output: 64
    bias_term: false
    pad: 0
    kernel_size: 1
    stride: 1
  }
}
layer {
  name: "addition_block2_45"
  type: "Eltwise"
  bottom: "addition_block2_44"
  bottom: "conv_block2_45_branch2c"
  top: "addition_block2_45"
}
layer {
  name: "bn_block2_46_branch2a"
  type: "BatchNorm"
  bottom: "addition_block2_45"
  top: "bn_block2_46_branch2a"
}
layer {
  name: "scale_block2_46_branch2a"
  type: "Scale"
  bottom: "bn_block2_46_branch2a"
  top: "bn_block2_46_branch2a"
  scale_param {
    bias_term: true
  }
}
layer {
  name: "relu_block2_46_branch2a"
  type: "ReLU"
  bottom: "bn_block2_46_branch2a"
  top: "bn_block2_46_branch2a"
}
layer {
  name: "conv_block2_46_branch2a"
  type: "Convolution"
  bottom: "bn_block2_46_branch2a"
  top: "conv_block2_46_branch2a"
  convolution_param {
    num_output: 16
    bias_term: false
    pad: 0
    kernel_size: 1
    stride: 1
  }
}
layer {
  name: "bn_block2_46_branch2b"
  type: "BatchNorm"
  bottom: "conv_block2_46_branch2a"
  top: "bn_block2_46_branch2b"
}
layer {
  name: "scale_block2_46_branch2b"
  type: "Scale"
  bottom: "bn_block2_46_branch2b"
  top: "bn_block2_46_branch2b"
  scale_param {
    bias_term: true
  }
}
layer {
  name: "relu_block2_46_branch2b"
  type: "ReLU"
  bottom: "bn_block2_46_branch2b"
  top: "bn_block2_46_branch2b"
}
layer {
  name: "conv_block2_46_branch2b"
  type: "Convolution"
  bottom: "bn_block2_46_branch2b"
  top: "conv_block2_46_branch2b"
  convolution_param {
    num_output: 16
    bias_term: false
    pad: 1
    kernel_size: 3
    stride: 1
  }
}
layer {
  name: "bn_block2_46_branch2c"
  type: "BatchNorm"
  bottom: "conv_block2_46_branch2b"
  top: "bn_block2_46_branch2c"
}
layer {
  name: "scale_block2_46_branch2c"
  type: "Scale"
  bottom: "bn_block2_46_branch2c"
  top: "bn_block2_46_branch2c"
  scale_param {
    bias_term: true
  }
}
layer {
  name: "relu_block2_46_branch2c"
  type: "ReLU"
  bottom: "bn_block2_46_branch2c"
  top: "bn_block2_46_branch2c"
}
layer {
  name: "conv_block2_46_branch2c"
  type: "Convolution"
  bottom: "bn_block2_46_branch2c"
  top: "conv_block2_46_branch2c"
  convolution_param {
    num_output: 64
    bias_term: false
    pad: 0
    kernel_size: 1
    stride: 1
  }
}
layer {
  name: "addition_block2_46"
  type: "Eltwise"
  bottom: "addition_block2_45"
  bottom: "conv_block2_46_branch2c"
  top: "addition_block2_46"
}
layer {
  name: "bn_block2_47_branch2a"
  type: "BatchNorm"
  bottom: "addition_block2_46"
  top: "bn_block2_47_branch2a"
}
layer {
  name: "scale_block2_47_branch2a"
  type: "Scale"
  bottom: "bn_block2_47_branch2a"
  top: "bn_block2_47_branch2a"
  scale_param {
    bias_term: true
  }
}
layer {
  name: "relu_block2_47_branch2a"
  type: "ReLU"
  bottom: "bn_block2_47_branch2a"
  top: "bn_block2_47_branch2a"
}
layer {
  name: "conv_block2_47_branch2a"
  type: "Convolution"
  bottom: "bn_block2_47_branch2a"
  top: "conv_block2_47_branch2a"
  convolution_param {
    num_output: 16
    bias_term: false
    pad: 0
    kernel_size: 1
    stride: 1
  }
}
layer {
  name: "bn_block2_47_branch2b"
  type: "BatchNorm"
  bottom: "conv_block2_47_branch2a"
  top: "bn_block2_47_branch2b"
}
layer {
  name: "scale_block2_47_branch2b"
  type: "Scale"
  bottom: "bn_block2_47_branch2b"
  top: "bn_block2_47_branch2b"
  scale_param {
    bias_term: true
  }
}
layer {
  name: "relu_block2_47_branch2b"
  type: "ReLU"
  bottom: "bn_block2_47_branch2b"
  top: "bn_block2_47_branch2b"
}
layer {
  name: "conv_block2_47_branch2b"
  type: "Convolution"
  bottom: "bn_block2_47_branch2b"
  top: "conv_block2_47_branch2b"
  convolution_param {
    num_output: 16
    bias_term: false
    pad: 1
    kernel_size: 3
    stride: 1
  }
}
layer {
  name: "bn_block2_47_branch2c"
  type: "BatchNorm"
  bottom: "conv_block2_47_branch2b"
  top: "bn_block2_47_branch2c"
}
layer {
  name: "scale_block2_47_branch2c"
  type: "Scale"
  bottom: "bn_block2_47_branch2c"
  top: "bn_block2_47_branch2c"
  scale_param {
    bias_term: true
  }
}
layer {
  name: "relu_block2_47_branch2c"
  type: "ReLU"
  bottom: "bn_block2_47_branch2c"
  top: "bn_block2_47_branch2c"
}
layer {
  name: "conv_block2_47_branch2c"
  type: "Convolution"
  bottom: "bn_block2_47_branch2c"
  top: "conv_block2_47_branch2c"
  convolution_param {
    num_output: 64
    bias_term: false
    pad: 0
    kernel_size: 1
    stride: 1
  }
}
layer {
  name: "addition_block2_47"
  type: "Eltwise"
  bottom: "addition_block2_46"
  bottom: "conv_block2_47_branch2c"
  top: "addition_block2_47"
}
layer {
  name: "bn_block2_48_branch2a"
  type: "BatchNorm"
  bottom: "addition_block2_47"
  top: "bn_block2_48_branch2a"
}
layer {
  name: "scale_block2_48_branch2a"
  type: "Scale"
  bottom: "bn_block2_48_branch2a"
  top: "bn_block2_48_branch2a"
  scale_param {
    bias_term: true
  }
}
layer {
  name: "relu_block2_48_branch2a"
  type: "ReLU"
  bottom: "bn_block2_48_branch2a"
  top: "bn_block2_48_branch2a"
}
layer {
  name: "conv_block2_48_branch2a"
  type: "Convolution"
  bottom: "bn_block2_48_branch2a"
  top: "conv_block2_48_branch2a"
  convolution_param {
    num_output: 16
    bias_term: false
    pad: 0
    kernel_size: 1
    stride: 1
  }
}
layer {
  name: "bn_block2_48_branch2b"
  type: "BatchNorm"
  bottom: "conv_block2_48_branch2a"
  top: "bn_block2_48_branch2b"
}
layer {
  name: "scale_block2_48_branch2b"
  type: "Scale"
  bottom: "bn_block2_48_branch2b"
  top: "bn_block2_48_branch2b"
  scale_param {
    bias_term: true
  }
}
layer {
  name: "relu_block2_48_branch2b"
  type: "ReLU"
  bottom: "bn_block2_48_branch2b"
  top: "bn_block2_48_branch2b"
}
layer {
  name: "conv_block2_48_branch2b"
  type: "Convolution"
  bottom: "bn_block2_48_branch2b"
  top: "conv_block2_48_branch2b"
  convolution_param {
    num_output: 16
    bias_term: false
    pad: 1
    kernel_size: 3
    stride: 1
  }
}
layer {
  name: "bn_block2_48_branch2c"
  type: "BatchNorm"
  bottom: "conv_block2_48_branch2b"
  top: "bn_block2_48_branch2c"
}
layer {
  name: "scale_block2_48_branch2c"
  type: "Scale"
  bottom: "bn_block2_48_branch2c"
  top: "bn_block2_48_branch2c"
  scale_param {
    bias_term: true
  }
}
layer {
  name: "relu_block2_48_branch2c"
  type: "ReLU"
  bottom: "bn_block2_48_branch2c"
  top: "bn_block2_48_branch2c"
}
layer {
  name: "conv_block2_48_branch2c"
  type: "Convolution"
  bottom: "bn_block2_48_branch2c"
  top: "conv_block2_48_branch2c"
  convolution_param {
    num_output: 64
    bias_term: false
    pad: 0
    kernel_size: 1
    stride: 1
  }
}
layer {
  name: "addition_block2_48"
  type: "Eltwise"
  bottom: "addition_block2_47"
  bottom: "conv_block2_48_branch2c"
  top: "addition_block2_48"
}
layer {
  name: "bn_block2_49_branch2a"
  type: "BatchNorm"
  bottom: "addition_block2_48"
  top: "bn_block2_49_branch2a"
}
layer {
  name: "scale_block2_49_branch2a"
  type: "Scale"
  bottom: "bn_block2_49_branch2a"
  top: "bn_block2_49_branch2a"
  scale_param {
    bias_term: true
  }
}
layer {
  name: "relu_block2_49_branch2a"
  type: "ReLU"
  bottom: "bn_block2_49_branch2a"
  top: "bn_block2_49_branch2a"
}
layer {
  name: "conv_block2_49_branch2a"
  type: "Convolution"
  bottom: "bn_block2_49_branch2a"
  top: "conv_block2_49_branch2a"
  convolution_param {
    num_output: 16
    bias_term: false
    pad: 0
    kernel_size: 1
    stride: 1
  }
}
layer {
  name: "bn_block2_49_branch2b"
  type: "BatchNorm"
  bottom: "conv_block2_49_branch2a"
  top: "bn_block2_49_branch2b"
}
layer {
  name: "scale_block2_49_branch2b"
  type: "Scale"
  bottom: "bn_block2_49_branch2b"
  top: "bn_block2_49_branch2b"
  scale_param {
    bias_term: true
  }
}
layer {
  name: "relu_block2_49_branch2b"
  type: "ReLU"
  bottom: "bn_block2_49_branch2b"
  top: "bn_block2_49_branch2b"
}
layer {
  name: "conv_block2_49_branch2b"
  type: "Convolution"
  bottom: "bn_block2_49_branch2b"
  top: "conv_block2_49_branch2b"
  convolution_param {
    num_output: 16
    bias_term: false
    pad: 1
    kernel_size: 3
    stride: 1
  }
}
layer {
  name: "bn_block2_49_branch2c"
  type: "BatchNorm"
  bottom: "conv_block2_49_branch2b"
  top: "bn_block2_49_branch2c"
}
layer {
  name: "scale_block2_49_branch2c"
  type: "Scale"
  bottom: "bn_block2_49_branch2c"
  top: "bn_block2_49_branch2c"
  scale_param {
    bias_term: true
  }
}
layer {
  name: "relu_block2_49_branch2c"
  type: "ReLU"
  bottom: "bn_block2_49_branch2c"
  top: "bn_block2_49_branch2c"
}
layer {
  name: "conv_block2_49_branch2c"
  type: "Convolution"
  bottom: "bn_block2_49_branch2c"
  top: "conv_block2_49_branch2c"
  convolution_param {
    num_output: 64
    bias_term: false
    pad: 0
    kernel_size: 1
    stride: 1
  }
}
layer {
  name: "addition_block2_49"
  type: "Eltwise"
  bottom: "addition_block2_48"
  bottom: "conv_block2_49_branch2c"
  top: "addition_block2_49"
}
layer {
  name: "bn_block2_50_branch2a"
  type: "BatchNorm"
  bottom: "addition_block2_49"
  top: "bn_block2_50_branch2a"
}
layer {
  name: "scale_block2_50_branch2a"
  type: "Scale"
  bottom: "bn_block2_50_branch2a"
  top: "bn_block2_50_branch2a"
  scale_param {
    bias_term: true
  }
}
layer {
  name: "relu_block2_50_branch2a"
  type: "ReLU"
  bottom: "bn_block2_50_branch2a"
  top: "bn_block2_50_branch2a"
}
layer {
  name: "conv_block2_50_branch2a"
  type: "Convolution"
  bottom: "bn_block2_50_branch2a"
  top: "conv_block2_50_branch2a"
  convolution_param {
    num_output: 16
    bias_term: false
    pad: 0
    kernel_size: 1
    stride: 1
  }
}
layer {
  name: "bn_block2_50_branch2b"
  type: "BatchNorm"
  bottom: "conv_block2_50_branch2a"
  top: "bn_block2_50_branch2b"
}
layer {
  name: "scale_block2_50_branch2b"
  type: "Scale"
  bottom: "bn_block2_50_branch2b"
  top: "bn_block2_50_branch2b"
  scale_param {
    bias_term: true
  }
}
layer {
  name: "relu_block2_50_branch2b"
  type: "ReLU"
  bottom: "bn_block2_50_branch2b"
  top: "bn_block2_50_branch2b"
}
layer {
  name: "conv_block2_50_branch2b"
  type: "Convolution"
  bottom: "bn_block2_50_branch2b"
  top: "conv_block2_50_branch2b"
  convolution_param {
    num_output: 16
    bias_term: false
    pad: 1
    kernel_size: 3
    stride: 1
  }
}
layer {
  name: "bn_block2_50_branch2c"
  type: "BatchNorm"
  bottom: "conv_block2_50_branch2b"
  top: "bn_block2_50_branch2c"
}
layer {
  name: "scale_block2_50_branch2c"
  type: "Scale"
  bottom: "bn_block2_50_branch2c"
  top: "bn_block2_50_branch2c"
  scale_param {
    bias_term: true
  }
}
layer {
  name: "relu_block2_50_branch2c"
  type: "ReLU"
  bottom: "bn_block2_50_branch2c"
  top: "bn_block2_50_branch2c"
}
layer {
  name: "conv_block2_50_branch2c"
  type: "Convolution"
  bottom: "bn_block2_50_branch2c"
  top: "conv_block2_50_branch2c"
  convolution_param {
    num_output: 64
    bias_term: false
    pad: 0
    kernel_size: 1
    stride: 1
  }
}
layer {
  name: "addition_block2_50"
  type: "Eltwise"
  bottom: "addition_block2_49"
  bottom: "conv_block2_50_branch2c"
  top: "addition_block2_50"
}
layer {
  name: "bn_block2_51_branch2a"
  type: "BatchNorm"
  bottom: "addition_block2_50"
  top: "bn_block2_51_branch2a"
}
layer {
  name: "scale_block2_51_branch2a"
  type: "Scale"
  bottom: "bn_block2_51_branch2a"
  top: "bn_block2_51_branch2a"
  scale_param {
    bias_term: true
  }
}
layer {
  name: "relu_block2_51_branch2a"
  type: "ReLU"
  bottom: "bn_block2_51_branch2a"
  top: "bn_block2_51_branch2a"
}
layer {
  name: "conv_block2_51_branch2a"
  type: "Convolution"
  bottom: "bn_block2_51_branch2a"
  top: "conv_block2_51_branch2a"
  convolution_param {
    num_output: 16
    bias_term: false
    pad: 0
    kernel_size: 1
    stride: 1
  }
}
layer {
  name: "bn_block2_51_branch2b"
  type: "BatchNorm"
  bottom: "conv_block2_51_branch2a"
  top: "bn_block2_51_branch2b"
}
layer {
  name: "scale_block2_51_branch2b"
  type: "Scale"
  bottom: "bn_block2_51_branch2b"
  top: "bn_block2_51_branch2b"
  scale_param {
    bias_term: true
  }
}
layer {
  name: "relu_block2_51_branch2b"
  type: "ReLU"
  bottom: "bn_block2_51_branch2b"
  top: "bn_block2_51_branch2b"
}
layer {
  name: "conv_block2_51_branch2b"
  type: "Convolution"
  bottom: "bn_block2_51_branch2b"
  top: "conv_block2_51_branch2b"
  convolution_param {
    num_output: 16
    bias_term: false
    pad: 1
    kernel_size: 3
    stride: 1
  }
}
layer {
  name: "bn_block2_51_branch2c"
  type: "BatchNorm"
  bottom: "conv_block2_51_branch2b"
  top: "bn_block2_51_branch2c"
}
layer {
  name: "scale_block2_51_branch2c"
  type: "Scale"
  bottom: "bn_block2_51_branch2c"
  top: "bn_block2_51_branch2c"
  scale_param {
    bias_term: true
  }
}
layer {
  name: "relu_block2_51_branch2c"
  type: "ReLU"
  bottom: "bn_block2_51_branch2c"
  top: "bn_block2_51_branch2c"
}
layer {
  name: "conv_block2_51_branch2c"
  type: "Convolution"
  bottom: "bn_block2_51_branch2c"
  top: "conv_block2_51_branch2c"
  convolution_param {
    num_output: 64
    bias_term: false
    pad: 0
    kernel_size: 1
    stride: 1
  }
}
layer {
  name: "addition_block2_51"
  type: "Eltwise"
  bottom: "addition_block2_50"
  bottom: "conv_block2_51_branch2c"
  top: "addition_block2_51"
}
layer {
  name: "bn_block2_52_branch2a"
  type: "BatchNorm"
  bottom: "addition_block2_51"
  top: "bn_block2_52_branch2a"
}
layer {
  name: "scale_block2_52_branch2a"
  type: "Scale"
  bottom: "bn_block2_52_branch2a"
  top: "bn_block2_52_branch2a"
  scale_param {
    bias_term: true
  }
}
layer {
  name: "relu_block2_52_branch2a"
  type: "ReLU"
  bottom: "bn_block2_52_branch2a"
  top: "bn_block2_52_branch2a"
}
layer {
  name: "conv_block2_52_branch2a"
  type: "Convolution"
  bottom: "bn_block2_52_branch2a"
  top: "conv_block2_52_branch2a"
  convolution_param {
    num_output: 16
    bias_term: false
    pad: 0
    kernel_size: 1
    stride: 1
  }
}
layer {
  name: "bn_block2_52_branch2b"
  type: "BatchNorm"
  bottom: "conv_block2_52_branch2a"
  top: "bn_block2_52_branch2b"
}
layer {
  name: "scale_block2_52_branch2b"
  type: "Scale"
  bottom: "bn_block2_52_branch2b"
  top: "bn_block2_52_branch2b"
  scale_param {
    bias_term: true
  }
}
layer {
  name: "relu_block2_52_branch2b"
  type: "ReLU"
  bottom: "bn_block2_52_branch2b"
  top: "bn_block2_52_branch2b"
}
layer {
  name: "conv_block2_52_branch2b"
  type: "Convolution"
  bottom: "bn_block2_52_branch2b"
  top: "conv_block2_52_branch2b"
  convolution_param {
    num_output: 16
    bias_term: false
    pad: 1
    kernel_size: 3
    stride: 1
  }
}
layer {
  name: "bn_block2_52_branch2c"
  type: "BatchNorm"
  bottom: "conv_block2_52_branch2b"
  top: "bn_block2_52_branch2c"
}
layer {
  name: "scale_block2_52_branch2c"
  type: "Scale"
  bottom: "bn_block2_52_branch2c"
  top: "bn_block2_52_branch2c"
  scale_param {
    bias_term: true
  }
}
layer {
  name: "relu_block2_52_branch2c"
  type: "ReLU"
  bottom: "bn_block2_52_branch2c"
  top: "bn_block2_52_branch2c"
}
layer {
  name: "conv_block2_52_branch2c"
  type: "Convolution"
  bottom: "bn_block2_52_branch2c"
  top: "conv_block2_52_branch2c"
  convolution_param {
    num_output: 64
    bias_term: false
    pad: 0
    kernel_size: 1
    stride: 1
  }
}
layer {
  name: "addition_block2_52"
  type: "Eltwise"
  bottom: "addition_block2_51"
  bottom: "conv_block2_52_branch2c"
  top: "addition_block2_52"
}
layer {
  name: "bn_block2_53_branch2a"
  type: "BatchNorm"
  bottom: "addition_block2_52"
  top: "bn_block2_53_branch2a"
}
layer {
  name: "scale_block2_53_branch2a"
  type: "Scale"
  bottom: "bn_block2_53_branch2a"
  top: "bn_block2_53_branch2a"
  scale_param {
    bias_term: true
  }
}
layer {
  name: "relu_block2_53_branch2a"
  type: "ReLU"
  bottom: "bn_block2_53_branch2a"
  top: "bn_block2_53_branch2a"
}
layer {
  name: "conv_block2_53_branch2a"
  type: "Convolution"
  bottom: "bn_block2_53_branch2a"
  top: "conv_block2_53_branch2a"
  convolution_param {
    num_output: 16
    bias_term: false
    pad: 0
    kernel_size: 1
    stride: 1
  }
}
layer {
  name: "bn_block2_53_branch2b"
  type: "BatchNorm"
  bottom: "conv_block2_53_branch2a"
  top: "bn_block2_53_branch2b"
}
layer {
  name: "scale_block2_53_branch2b"
  type: "Scale"
  bottom: "bn_block2_53_branch2b"
  top: "bn_block2_53_branch2b"
  scale_param {
    bias_term: true
  }
}
layer {
  name: "relu_block2_53_branch2b"
  type: "ReLU"
  bottom: "bn_block2_53_branch2b"
  top: "bn_block2_53_branch2b"
}
layer {
  name: "conv_block2_53_branch2b"
  type: "Convolution"
  bottom: "bn_block2_53_branch2b"
  top: "conv_block2_53_branch2b"
  convolution_param {
    num_output: 16
    bias_term: false
    pad: 1
    kernel_size: 3
    stride: 1
  }
}
layer {
  name: "bn_block2_53_branch2c"
  type: "BatchNorm"
  bottom: "conv_block2_53_branch2b"
  top: "bn_block2_53_branch2c"
}
layer {
  name: "scale_block2_53_branch2c"
  type: "Scale"
  bottom: "bn_block2_53_branch2c"
  top: "bn_block2_53_branch2c"
  scale_param {
    bias_term: true
  }
}
layer {
  name: "relu_block2_53_branch2c"
  type: "ReLU"
  bottom: "bn_block2_53_branch2c"
  top: "bn_block2_53_branch2c"
}
layer {
  name: "conv_block2_53_branch2c"
  type: "Convolution"
  bottom: "bn_block2_53_branch2c"
  top: "conv_block2_53_branch2c"
  convolution_param {
    num_output: 64
    bias_term: false
    pad: 0
    kernel_size: 1
    stride: 1
  }
}
layer {
  name: "addition_block2_53"
  type: "Eltwise"
  bottom: "addition_block2_52"
  bottom: "conv_block2_53_branch2c"
  top: "addition_block2_53"
}
layer {
  name: "bn_block2_54_branch2a"
  type: "BatchNorm"
  bottom: "addition_block2_53"
  top: "bn_block2_54_branch2a"
}
layer {
  name: "scale_block2_54_branch2a"
  type: "Scale"
  bottom: "bn_block2_54_branch2a"
  top: "bn_block2_54_branch2a"
  scale_param {
    bias_term: true
  }
}
layer {
  name: "relu_block2_54_branch2a"
  type: "ReLU"
  bottom: "bn_block2_54_branch2a"
  top: "bn_block2_54_branch2a"
}
layer {
  name: "conv_block2_54_branch2a"
  type: "Convolution"
  bottom: "bn_block2_54_branch2a"
  top: "conv_block2_54_branch2a"
  convolution_param {
    num_output: 16
    bias_term: false
    pad: 0
    kernel_size: 1
    stride: 1
  }
}
layer {
  name: "bn_block2_54_branch2b"
  type: "BatchNorm"
  bottom: "conv_block2_54_branch2a"
  top: "bn_block2_54_branch2b"
}
layer {
  name: "scale_block2_54_branch2b"
  type: "Scale"
  bottom: "bn_block2_54_branch2b"
  top: "bn_block2_54_branch2b"
  scale_param {
    bias_term: true
  }
}
layer {
  name: "relu_block2_54_branch2b"
  type: "ReLU"
  bottom: "bn_block2_54_branch2b"
  top: "bn_block2_54_branch2b"
}
layer {
  name: "conv_block2_54_branch2b"
  type: "Convolution"
  bottom: "bn_block2_54_branch2b"
  top: "conv_block2_54_branch2b"
  convolution_param {
    num_output: 16
    bias_term: false
    pad: 1
    kernel_size: 3
    stride: 1
  }
}
layer {
  name: "bn_block2_54_branch2c"
  type: "BatchNorm"
  bottom: "conv_block2_54_branch2b"
  top: "bn_block2_54_branch2c"
}
layer {
  name: "scale_block2_54_branch2c"
  type: "Scale"
  bottom: "bn_block2_54_branch2c"
  top: "bn_block2_54_branch2c"
  scale_param {
    bias_term: true
  }
}
layer {
  name: "relu_block2_54_branch2c"
  type: "ReLU"
  bottom: "bn_block2_54_branch2c"
  top: "bn_block2_54_branch2c"
}
layer {
  name: "conv_block2_54_branch2c"
  type: "Convolution"
  bottom: "bn_block2_54_branch2c"
  top: "conv_block2_54_branch2c"
  convolution_param {
    num_output: 64
    bias_term: false
    pad: 0
    kernel_size: 1
    stride: 1
  }
}
layer {
  name: "addition_block2_54"
  type: "Eltwise"
  bottom: "addition_block2_53"
  bottom: "conv_block2_54_branch2c"
  top: "addition_block2_54"
}
layer {
  name: "bn_block2_55_branch2a"
  type: "BatchNorm"
  bottom: "addition_block2_54"
  top: "bn_block2_55_branch2a"
}
layer {
  name: "scale_block2_55_branch2a"
  type: "Scale"
  bottom: "bn_block2_55_branch2a"
  top: "bn_block2_55_branch2a"
  scale_param {
    bias_term: true
  }
}
layer {
  name: "relu_block2_55_branch2a"
  type: "ReLU"
  bottom: "bn_block2_55_branch2a"
  top: "bn_block2_55_branch2a"
}
layer {
  name: "conv_block2_55_branch2a"
  type: "Convolution"
  bottom: "bn_block2_55_branch2a"
  top: "conv_block2_55_branch2a"
  convolution_param {
    num_output: 16
    bias_term: false
    pad: 0
    kernel_size: 1
    stride: 1
  }
}
layer {
  name: "bn_block2_55_branch2b"
  type: "BatchNorm"
  bottom: "conv_block2_55_branch2a"
  top: "bn_block2_55_branch2b"
}
layer {
  name: "scale_block2_55_branch2b"
  type: "Scale"
  bottom: "bn_block2_55_branch2b"
  top: "bn_block2_55_branch2b"
  scale_param {
    bias_term: true
  }
}
layer {
  name: "relu_block2_55_branch2b"
  type: "ReLU"
  bottom: "bn_block2_55_branch2b"
  top: "bn_block2_55_branch2b"
}
layer {
  name: "conv_block2_55_branch2b"
  type: "Convolution"
  bottom: "bn_block2_55_branch2b"
  top: "conv_block2_55_branch2b"
  convolution_param {
    num_output: 16
    bias_term: false
    pad: 1
    kernel_size: 3
    stride: 1
  }
}
layer {
  name: "bn_block2_55_branch2c"
  type: "BatchNorm"
  bottom: "conv_block2_55_branch2b"
  top: "bn_block2_55_branch2c"
}
layer {
  name: "scale_block2_55_branch2c"
  type: "Scale"
  bottom: "bn_block2_55_branch2c"
  top: "bn_block2_55_branch2c"
  scale_param {
    bias_term: true
  }
}
layer {
  name: "relu_block2_55_branch2c"
  type: "ReLU"
  bottom: "bn_block2_55_branch2c"
  top: "bn_block2_55_branch2c"
}
layer {
  name: "conv_block2_55_branch2c"
  type: "Convolution"
  bottom: "bn_block2_55_branch2c"
  top: "conv_block2_55_branch2c"
  convolution_param {
    num_output: 64
    bias_term: false
    pad: 0
    kernel_size: 1
    stride: 1
  }
}
layer {
  name: "addition_block2_55"
  type: "Eltwise"
  bottom: "addition_block2_54"
  bottom: "conv_block2_55_branch2c"
  top: "addition_block2_55"
}
layer {
  name: "bn_block2_56_branch2a"
  type: "BatchNorm"
  bottom: "addition_block2_55"
  top: "bn_block2_56_branch2a"
}
layer {
  name: "scale_block2_56_branch2a"
  type: "Scale"
  bottom: "bn_block2_56_branch2a"
  top: "bn_block2_56_branch2a"
  scale_param {
    bias_term: true
  }
}
layer {
  name: "relu_block2_56_branch2a"
  type: "ReLU"
  bottom: "bn_block2_56_branch2a"
  top: "bn_block2_56_branch2a"
}
layer {
  name: "conv_block2_56_branch2a"
  type: "Convolution"
  bottom: "bn_block2_56_branch2a"
  top: "conv_block2_56_branch2a"
  convolution_param {
    num_output: 16
    bias_term: false
    pad: 0
    kernel_size: 1
    stride: 1
  }
}
layer {
  name: "bn_block2_56_branch2b"
  type: "BatchNorm"
  bottom: "conv_block2_56_branch2a"
  top: "bn_block2_56_branch2b"
}
layer {
  name: "scale_block2_56_branch2b"
  type: "Scale"
  bottom: "bn_block2_56_branch2b"
  top: "bn_block2_56_branch2b"
  scale_param {
    bias_term: true
  }
}
layer {
  name: "relu_block2_56_branch2b"
  type: "ReLU"
  bottom: "bn_block2_56_branch2b"
  top: "bn_block2_56_branch2b"
}
layer {
  name: "conv_block2_56_branch2b"
  type: "Convolution"
  bottom: "bn_block2_56_branch2b"
  top: "conv_block2_56_branch2b"
  convolution_param {
    num_output: 16
    bias_term: false
    pad: 1
    kernel_size: 3
    stride: 1
  }
}
layer {
  name: "bn_block2_56_branch2c"
  type: "BatchNorm"
  bottom: "conv_block2_56_branch2b"
  top: "bn_block2_56_branch2c"
}
layer {
  name: "scale_block2_56_branch2c"
  type: "Scale"
  bottom: "bn_block2_56_branch2c"
  top: "bn_block2_56_branch2c"
  scale_param {
    bias_term: true
  }
}
layer {
  name: "relu_block2_56_branch2c"
  type: "ReLU"
  bottom: "bn_block2_56_branch2c"
  top: "bn_block2_56_branch2c"
}
layer {
  name: "conv_block2_56_branch2c"
  type: "Convolution"
  bottom: "bn_block2_56_branch2c"
  top: "conv_block2_56_branch2c"
  convolution_param {
    num_output: 64
    bias_term: false
    pad: 0
    kernel_size: 1
    stride: 1
  }
}
layer {
  name: "addition_block2_56"
  type: "Eltwise"
  bottom: "addition_block2_55"
  bottom: "conv_block2_56_branch2c"
  top: "addition_block2_56"
}
layer {
  name: "bn_block2_57_branch2a"
  type: "BatchNorm"
  bottom: "addition_block2_56"
  top: "bn_block2_57_branch2a"
}
layer {
  name: "scale_block2_57_branch2a"
  type: "Scale"
  bottom: "bn_block2_57_branch2a"
  top: "bn_block2_57_branch2a"
  scale_param {
    bias_term: true
  }
}
layer {
  name: "relu_block2_57_branch2a"
  type: "ReLU"
  bottom: "bn_block2_57_branch2a"
  top: "bn_block2_57_branch2a"
}
layer {
  name: "conv_block2_57_branch2a"
  type: "Convolution"
  bottom: "bn_block2_57_branch2a"
  top: "conv_block2_57_branch2a"
  convolution_param {
    num_output: 16
    bias_term: false
    pad: 0
    kernel_size: 1
    stride: 1
  }
}
layer {
  name: "bn_block2_57_branch2b"
  type: "BatchNorm"
  bottom: "conv_block2_57_branch2a"
  top: "bn_block2_57_branch2b"
}
layer {
  name: "scale_block2_57_branch2b"
  type: "Scale"
  bottom: "bn_block2_57_branch2b"
  top: "bn_block2_57_branch2b"
  scale_param {
    bias_term: true
  }
}
layer {
  name: "relu_block2_57_branch2b"
  type: "ReLU"
  bottom: "bn_block2_57_branch2b"
  top: "bn_block2_57_branch2b"
}
layer {
  name: "conv_block2_57_branch2b"
  type: "Convolution"
  bottom: "bn_block2_57_branch2b"
  top: "conv_block2_57_branch2b"
  convolution_param {
    num_output: 16
    bias_term: false
    pad: 1
    kernel_size: 3
    stride: 1
  }
}
layer {
  name: "bn_block2_57_branch2c"
  type: "BatchNorm"
  bottom: "conv_block2_57_branch2b"
  top: "bn_block2_57_branch2c"
}
layer {
  name: "scale_block2_57_branch2c"
  type: "Scale"
  bottom: "bn_block2_57_branch2c"
  top: "bn_block2_57_branch2c"
  scale_param {
    bias_term: true
  }
}
layer {
  name: "relu_block2_57_branch2c"
  type: "ReLU"
  bottom: "bn_block2_57_branch2c"
  top: "bn_block2_57_branch2c"
}
layer {
  name: "conv_block2_57_branch2c"
  type: "Convolution"
  bottom: "bn_block2_57_branch2c"
  top: "conv_block2_57_branch2c"
  convolution_param {
    num_output: 64
    bias_term: false
    pad: 0
    kernel_size: 1
    stride: 1
  }
}
layer {
  name: "addition_block2_57"
  type: "Eltwise"
  bottom: "addition_block2_56"
  bottom: "conv_block2_57_branch2c"
  top: "addition_block2_57"
}
layer {
  name: "bn_block2_58_branch2a"
  type: "BatchNorm"
  bottom: "addition_block2_57"
  top: "bn_block2_58_branch2a"
}
layer {
  name: "scale_block2_58_branch2a"
  type: "Scale"
  bottom: "bn_block2_58_branch2a"
  top: "bn_block2_58_branch2a"
  scale_param {
    bias_term: true
  }
}
layer {
  name: "relu_block2_58_branch2a"
  type: "ReLU"
  bottom: "bn_block2_58_branch2a"
  top: "bn_block2_58_branch2a"
}
layer {
  name: "conv_block2_58_branch2a"
  type: "Convolution"
  bottom: "bn_block2_58_branch2a"
  top: "conv_block2_58_branch2a"
  convolution_param {
    num_output: 16
    bias_term: false
    pad: 0
    kernel_size: 1
    stride: 1
  }
}
layer {
  name: "bn_block2_58_branch2b"
  type: "BatchNorm"
  bottom: "conv_block2_58_branch2a"
  top: "bn_block2_58_branch2b"
}
layer {
  name: "scale_block2_58_branch2b"
  type: "Scale"
  bottom: "bn_block2_58_branch2b"
  top: "bn_block2_58_branch2b"
  scale_param {
    bias_term: true
  }
}
layer {
  name: "relu_block2_58_branch2b"
  type: "ReLU"
  bottom: "bn_block2_58_branch2b"
  top: "bn_block2_58_branch2b"
}
layer {
  name: "conv_block2_58_branch2b"
  type: "Convolution"
  bottom: "bn_block2_58_branch2b"
  top: "conv_block2_58_branch2b"
  convolution_param {
    num_output: 16
    bias_term: false
    pad: 1
    kernel_size: 3
    stride: 1
  }
}
layer {
  name: "bn_block2_58_branch2c"
  type: "BatchNorm"
  bottom: "conv_block2_58_branch2b"
  top: "bn_block2_58_branch2c"
}
layer {
  name: "scale_block2_58_branch2c"
  type: "Scale"
  bottom: "bn_block2_58_branch2c"
  top: "bn_block2_58_branch2c"
  scale_param {
    bias_term: true
  }
}
layer {
  name: "relu_block2_58_branch2c"
  type: "ReLU"
  bottom: "bn_block2_58_branch2c"
  top: "bn_block2_58_branch2c"
}
layer {
  name: "conv_block2_58_branch2c"
  type: "Convolution"
  bottom: "bn_block2_58_branch2c"
  top: "conv_block2_58_branch2c"
  convolution_param {
    num_output: 64
    bias_term: false
    pad: 0
    kernel_size: 1
    stride: 1
  }
}
layer {
  name: "addition_block2_58"
  type: "Eltwise"
  bottom: "addition_block2_57"
  bottom: "conv_block2_58_branch2c"
  top: "addition_block2_58"
}
layer {
  name: "bn_block2_59_branch2a"
  type: "BatchNorm"
  bottom: "addition_block2_58"
  top: "bn_block2_59_branch2a"
}
layer {
  name: "scale_block2_59_branch2a"
  type: "Scale"
  bottom: "bn_block2_59_branch2a"
  top: "bn_block2_59_branch2a"
  scale_param {
    bias_term: true
  }
}
layer {
  name: "relu_block2_59_branch2a"
  type: "ReLU"
  bottom: "bn_block2_59_branch2a"
  top: "bn_block2_59_branch2a"
}
layer {
  name: "conv_block2_59_branch2a"
  type: "Convolution"
  bottom: "bn_block2_59_branch2a"
  top: "conv_block2_59_branch2a"
  convolution_param {
    num_output: 16
    bias_term: false
    pad: 0
    kernel_size: 1
    stride: 1
  }
}
layer {
  name: "bn_block2_59_branch2b"
  type: "BatchNorm"
  bottom: "conv_block2_59_branch2a"
  top: "bn_block2_59_branch2b"
}
layer {
  name: "scale_block2_59_branch2b"
  type: "Scale"
  bottom: "bn_block2_59_branch2b"
  top: "bn_block2_59_branch2b"
  scale_param {
    bias_term: true
  }
}
layer {
  name: "relu_block2_59_branch2b"
  type: "ReLU"
  bottom: "bn_block2_59_branch2b"
  top: "bn_block2_59_branch2b"
}
layer {
  name: "conv_block2_59_branch2b"
  type: "Convolution"
  bottom: "bn_block2_59_branch2b"
  top: "conv_block2_59_branch2b"
  convolution_param {
    num_output: 16
    bias_term: false
    pad: 1
    kernel_size: 3
    stride: 1
  }
}
layer {
  name: "bn_block2_59_branch2c"
  type: "BatchNorm"
  bottom: "conv_block2_59_branch2b"
  top: "bn_block2_59_branch2c"
}
layer {
  name: "scale_block2_59_branch2c"
  type: "Scale"
  bottom: "bn_block2_59_branch2c"
  top: "bn_block2_59_branch2c"
  scale_param {
    bias_term: true
  }
}
layer {
  name: "relu_block2_59_branch2c"
  type: "ReLU"
  bottom: "bn_block2_59_branch2c"
  top: "bn_block2_59_branch2c"
}
layer {
  name: "conv_block2_59_branch2c"
  type: "Convolution"
  bottom: "bn_block2_59_branch2c"
  top: "conv_block2_59_branch2c"
  convolution_param {
    num_output: 64
    bias_term: false
    pad: 0
    kernel_size: 1
    stride: 1
  }
}
layer {
  name: "addition_block2_59"
  type: "Eltwise"
  bottom: "addition_block2_58"
  bottom: "conv_block2_59_branch2c"
  top: "addition_block2_59"
}
layer {
  name: "bn_block2_60_branch2a"
  type: "BatchNorm"
  bottom: "addition_block2_59"
  top: "bn_block2_60_branch2a"
}
layer {
  name: "scale_block2_60_branch2a"
  type: "Scale"
  bottom: "bn_block2_60_branch2a"
  top: "bn_block2_60_branch2a"
  scale_param {
    bias_term: true
  }
}
layer {
  name: "relu_block2_60_branch2a"
  type: "ReLU"
  bottom: "bn_block2_60_branch2a"
  top: "bn_block2_60_branch2a"
}
layer {
  name: "conv_block2_60_branch2a"
  type: "Convolution"
  bottom: "bn_block2_60_branch2a"
  top: "conv_block2_60_branch2a"
  convolution_param {
    num_output: 16
    bias_term: false
    pad: 0
    kernel_size: 1
    stride: 1
  }
}
layer {
  name: "bn_block2_60_branch2b"
  type: "BatchNorm"
  bottom: "conv_block2_60_branch2a"
  top: "bn_block2_60_branch2b"
}
layer {
  name: "scale_block2_60_branch2b"
  type: "Scale"
  bottom: "bn_block2_60_branch2b"
  top: "bn_block2_60_branch2b"
  scale_param {
    bias_term: true
  }
}
layer {
  name: "relu_block2_60_branch2b"
  type: "ReLU"
  bottom: "bn_block2_60_branch2b"
  top: "bn_block2_60_branch2b"
}
layer {
  name: "conv_block2_60_branch2b"
  type: "Convolution"
  bottom: "bn_block2_60_branch2b"
  top: "conv_block2_60_branch2b"
  convolution_param {
    num_output: 16
    bias_term: false
    pad: 1
    kernel_size: 3
    stride: 1
  }
}
layer {
  name: "bn_block2_60_branch2c"
  type: "BatchNorm"
  bottom: "conv_block2_60_branch2b"
  top: "bn_block2_60_branch2c"
}
layer {
  name: "scale_block2_60_branch2c"
  type: "Scale"
  bottom: "bn_block2_60_branch2c"
  top: "bn_block2_60_branch2c"
  scale_param {
    bias_term: true
  }
}
layer {
  name: "relu_block2_60_branch2c"
  type: "ReLU"
  bottom: "bn_block2_60_branch2c"
  top: "bn_block2_60_branch2c"
}
layer {
  name: "conv_block2_60_branch2c"
  type: "Convolution"
  bottom: "bn_block2_60_branch2c"
  top: "conv_block2_60_branch2c"
  convolution_param {
    num_output: 64
    bias_term: false
    pad: 0
    kernel_size: 1
    stride: 1
  }
}
layer {
  name: "addition_block2_60"
  type: "Eltwise"
  bottom: "addition_block2_59"
  bottom: "conv_block2_60_branch2c"
  top: "addition_block2_60"
}
layer {
  name: "bn_block2_61_branch2a"
  type: "BatchNorm"
  bottom: "addition_block2_60"
  top: "bn_block2_61_branch2a"
}
layer {
  name: "scale_block2_61_branch2a"
  type: "Scale"
  bottom: "bn_block2_61_branch2a"
  top: "bn_block2_61_branch2a"
  scale_param {
    bias_term: true
  }
}
layer {
  name: "relu_block2_61_branch2a"
  type: "ReLU"
  bottom: "bn_block2_61_branch2a"
  top: "bn_block2_61_branch2a"
}
layer {
  name: "conv_block2_61_branch2a"
  type: "Convolution"
  bottom: "bn_block2_61_branch2a"
  top: "conv_block2_61_branch2a"
  convolution_param {
    num_output: 16
    bias_term: false
    pad: 0
    kernel_size: 1
    stride: 1
  }
}
layer {
  name: "bn_block2_61_branch2b"
  type: "BatchNorm"
  bottom: "conv_block2_61_branch2a"
  top: "bn_block2_61_branch2b"
}
layer {
  name: "scale_block2_61_branch2b"
  type: "Scale"
  bottom: "bn_block2_61_branch2b"
  top: "bn_block2_61_branch2b"
  scale_param {
    bias_term: true
  }
}
layer {
  name: "relu_block2_61_branch2b"
  type: "ReLU"
  bottom: "bn_block2_61_branch2b"
  top: "bn_block2_61_branch2b"
}
layer {
  name: "conv_block2_61_branch2b"
  type: "Convolution"
  bottom: "bn_block2_61_branch2b"
  top: "conv_block2_61_branch2b"
  convolution_param {
    num_output: 16
    bias_term: false
    pad: 1
    kernel_size: 3
    stride: 1
  }
}
layer {
  name: "bn_block2_61_branch2c"
  type: "BatchNorm"
  bottom: "conv_block2_61_branch2b"
  top: "bn_block2_61_branch2c"
}
layer {
  name: "scale_block2_61_branch2c"
  type: "Scale"
  bottom: "bn_block2_61_branch2c"
  top: "bn_block2_61_branch2c"
  scale_param {
    bias_term: true
  }
}
layer {
  name: "relu_block2_61_branch2c"
  type: "ReLU"
  bottom: "bn_block2_61_branch2c"
  top: "bn_block2_61_branch2c"
}
layer {
  name: "conv_block2_61_branch2c"
  type: "Convolution"
  bottom: "bn_block2_61_branch2c"
  top: "conv_block2_61_branch2c"
  convolution_param {
    num_output: 64
    bias_term: false
    pad: 0
    kernel_size: 1
    stride: 1
  }
}
layer {
  name: "addition_block2_61"
  type: "Eltwise"
  bottom: "addition_block2_60"
  bottom: "conv_block2_61_branch2c"
  top: "addition_block2_61"
}
layer {
  name: "bn_block2_62_branch2a"
  type: "BatchNorm"
  bottom: "addition_block2_61"
  top: "bn_block2_62_branch2a"
}
layer {
  name: "scale_block2_62_branch2a"
  type: "Scale"
  bottom: "bn_block2_62_branch2a"
  top: "bn_block2_62_branch2a"
  scale_param {
    bias_term: true
  }
}
layer {
  name: "relu_block2_62_branch2a"
  type: "ReLU"
  bottom: "bn_block2_62_branch2a"
  top: "bn_block2_62_branch2a"
}
layer {
  name: "conv_block2_62_branch2a"
  type: "Convolution"
  bottom: "bn_block2_62_branch2a"
  top: "conv_block2_62_branch2a"
  convolution_param {
    num_output: 16
    bias_term: false
    pad: 0
    kernel_size: 1
    stride: 1
  }
}
layer {
  name: "bn_block2_62_branch2b"
  type: "BatchNorm"
  bottom: "conv_block2_62_branch2a"
  top: "bn_block2_62_branch2b"
}
layer {
  name: "scale_block2_62_branch2b"
  type: "Scale"
  bottom: "bn_block2_62_branch2b"
  top: "bn_block2_62_branch2b"
  scale_param {
    bias_term: true
  }
}
layer {
  name: "relu_block2_62_branch2b"
  type: "ReLU"
  bottom: "bn_block2_62_branch2b"
  top: "bn_block2_62_branch2b"
}
layer {
  name: "conv_block2_62_branch2b"
  type: "Convolution"
  bottom: "bn_block2_62_branch2b"
  top: "conv_block2_62_branch2b"
  convolution_param {
    num_output: 16
    bias_term: false
    pad: 1
    kernel_size: 3
    stride: 1
  }
}
layer {
  name: "bn_block2_62_branch2c"
  type: "BatchNorm"
  bottom: "conv_block2_62_branch2b"
  top: "bn_block2_62_branch2c"
}
layer {
  name: "scale_block2_62_branch2c"
  type: "Scale"
  bottom: "bn_block2_62_branch2c"
  top: "bn_block2_62_branch2c"
  scale_param {
    bias_term: true
  }
}
layer {
  name: "relu_block2_62_branch2c"
  type: "ReLU"
  bottom: "bn_block2_62_branch2c"
  top: "bn_block2_62_branch2c"
}
layer {
  name: "conv_block2_62_branch2c"
  type: "Convolution"
  bottom: "bn_block2_62_branch2c"
  top: "conv_block2_62_branch2c"
  convolution_param {
    num_output: 64
    bias_term: false
    pad: 0
    kernel_size: 1
    stride: 1
  }
}
layer {
  name: "addition_block2_62"
  type: "Eltwise"
  bottom: "addition_block2_61"
  bottom: "conv_block2_62_branch2c"
  top: "addition_block2_62"
}
layer {
  name: "bn_block2_63_branch2a"
  type: "BatchNorm"
  bottom: "addition_block2_62"
  top: "bn_block2_63_branch2a"
}
layer {
  name: "scale_block2_63_branch2a"
  type: "Scale"
  bottom: "bn_block2_63_branch2a"
  top: "bn_block2_63_branch2a"
  scale_param {
    bias_term: true
  }
}
layer {
  name: "relu_block2_63_branch2a"
  type: "ReLU"
  bottom: "bn_block2_63_branch2a"
  top: "bn_block2_63_branch2a"
}
layer {
  name: "conv_block2_63_branch2a"
  type: "Convolution"
  bottom: "bn_block2_63_branch2a"
  top: "conv_block2_63_branch2a"
  convolution_param {
    num_output: 16
    bias_term: false
    pad: 0
    kernel_size: 1
    stride: 1
  }
}
layer {
  name: "bn_block2_63_branch2b"
  type: "BatchNorm"
  bottom: "conv_block2_63_branch2a"
  top: "bn_block2_63_branch2b"
}
layer {
  name: "scale_block2_63_branch2b"
  type: "Scale"
  bottom: "bn_block2_63_branch2b"
  top: "bn_block2_63_branch2b"
  scale_param {
    bias_term: true
  }
}
layer {
  name: "relu_block2_63_branch2b"
  type: "ReLU"
  bottom: "bn_block2_63_branch2b"
  top: "bn_block2_63_branch2b"
}
layer {
  name: "conv_block2_63_branch2b"
  type: "Convolution"
  bottom: "bn_block2_63_branch2b"
  top: "conv_block2_63_branch2b"
  convolution_param {
    num_output: 16
    bias_term: false
    pad: 1
    kernel_size: 3
    stride: 1
  }
}
layer {
  name: "bn_block2_63_branch2c"
  type: "BatchNorm"
  bottom: "conv_block2_63_branch2b"
  top: "bn_block2_63_branch2c"
}
layer {
  name: "scale_block2_63_branch2c"
  type: "Scale"
  bottom: "bn_block2_63_branch2c"
  top: "bn_block2_63_branch2c"
  scale_param {
    bias_term: true
  }
}
layer {
  name: "relu_block2_63_branch2c"
  type: "ReLU"
  bottom: "bn_block2_63_branch2c"
  top: "bn_block2_63_branch2c"
}
layer {
  name: "conv_block2_63_branch2c"
  type: "Convolution"
  bottom: "bn_block2_63_branch2c"
  top: "conv_block2_63_branch2c"
  convolution_param {
    num_output: 64
    bias_term: false
    pad: 0
    kernel_size: 1
    stride: 1
  }
}
layer {
  name: "addition_block2_63"
  type: "Eltwise"
  bottom: "addition_block2_62"
  bottom: "conv_block2_63_branch2c"
  top: "addition_block2_63"
}
layer {
  name: "bn_block2_64_branch2a"
  type: "BatchNorm"
  bottom: "addition_block2_63"
  top: "bn_block2_64_branch2a"
}
layer {
  name: "scale_block2_64_branch2a"
  type: "Scale"
  bottom: "bn_block2_64_branch2a"
  top: "bn_block2_64_branch2a"
  scale_param {
    bias_term: true
  }
}
layer {
  name: "relu_block2_64_branch2a"
  type: "ReLU"
  bottom: "bn_block2_64_branch2a"
  top: "bn_block2_64_branch2a"
}
layer {
  name: "conv_block2_64_branch2a"
  type: "Convolution"
  bottom: "bn_block2_64_branch2a"
  top: "conv_block2_64_branch2a"
  convolution_param {
    num_output: 16
    bias_term: false
    pad: 0
    kernel_size: 1
    stride: 1
  }
}
layer {
  name: "bn_block2_64_branch2b"
  type: "BatchNorm"
  bottom: "conv_block2_64_branch2a"
  top: "bn_block2_64_branch2b"
}
layer {
  name: "scale_block2_64_branch2b"
  type: "Scale"
  bottom: "bn_block2_64_branch2b"
  top: "bn_block2_64_branch2b"
  scale_param {
    bias_term: true
  }
}
layer {
  name: "relu_block2_64_branch2b"
  type: "ReLU"
  bottom: "bn_block2_64_branch2b"
  top: "bn_block2_64_branch2b"
}
layer {
  name: "conv_block2_64_branch2b"
  type: "Convolution"
  bottom: "bn_block2_64_branch2b"
  top: "conv_block2_64_branch2b"
  convolution_param {
    num_output: 16
    bias_term: false
    pad: 1
    kernel_size: 3
    stride: 1
  }
}
layer {
  name: "bn_block2_64_branch2c"
  type: "BatchNorm"
  bottom: "conv_block2_64_branch2b"
  top: "bn_block2_64_branch2c"
}
layer {
  name: "scale_block2_64_branch2c"
  type: "Scale"
  bottom: "bn_block2_64_branch2c"
  top: "bn_block2_64_branch2c"
  scale_param {
    bias_term: true
  }
}
layer {
  name: "relu_block2_64_branch2c"
  type: "ReLU"
  bottom: "bn_block2_64_branch2c"
  top: "bn_block2_64_branch2c"
}
layer {
  name: "conv_block2_64_branch2c"
  type: "Convolution"
  bottom: "bn_block2_64_branch2c"
  top: "conv_block2_64_branch2c"
  convolution_param {
    num_output: 64
    bias_term: false
    pad: 0
    kernel_size: 1
    stride: 1
  }
}
layer {
  name: "addition_block2_64"
  type: "Eltwise"
  bottom: "addition_block2_63"
  bottom: "conv_block2_64_branch2c"
  top: "addition_block2_64"
}
layer {
  name: "bn_block2_65_branch2a"
  type: "BatchNorm"
  bottom: "addition_block2_64"
  top: "bn_block2_65_branch2a"
}
layer {
  name: "scale_block2_65_branch2a"
  type: "Scale"
  bottom: "bn_block2_65_branch2a"
  top: "bn_block2_65_branch2a"
  scale_param {
    bias_term: true
  }
}
layer {
  name: "relu_block2_65_branch2a"
  type: "ReLU"
  bottom: "bn_block2_65_branch2a"
  top: "bn_block2_65_branch2a"
}
layer {
  name: "conv_block2_65_branch2a"
  type: "Convolution"
  bottom: "bn_block2_65_branch2a"
  top: "conv_block2_65_branch2a"
  convolution_param {
    num_output: 16
    bias_term: false
    pad: 0
    kernel_size: 1
    stride: 1
  }
}
layer {
  name: "bn_block2_65_branch2b"
  type: "BatchNorm"
  bottom: "conv_block2_65_branch2a"
  top: "bn_block2_65_branch2b"
}
layer {
  name: "scale_block2_65_branch2b"
  type: "Scale"
  bottom: "bn_block2_65_branch2b"
  top: "bn_block2_65_branch2b"
  scale_param {
    bias_term: true
  }
}
layer {
  name: "relu_block2_65_branch2b"
  type: "ReLU"
  bottom: "bn_block2_65_branch2b"
  top: "bn_block2_65_branch2b"
}
layer {
  name: "conv_block2_65_branch2b"
  type: "Convolution"
  bottom: "bn_block2_65_branch2b"
  top: "conv_block2_65_branch2b"
  convolution_param {
    num_output: 16
    bias_term: false
    pad: 1
    kernel_size: 3
    stride: 1
  }
}
layer {
  name: "bn_block2_65_branch2c"
  type: "BatchNorm"
  bottom: "conv_block2_65_branch2b"
  top: "bn_block2_65_branch2c"
}
layer {
  name: "scale_block2_65_branch2c"
  type: "Scale"
  bottom: "bn_block2_65_branch2c"
  top: "bn_block2_65_branch2c"
  scale_param {
    bias_term: true
  }
}
layer {
  name: "relu_block2_65_branch2c"
  type: "ReLU"
  bottom: "bn_block2_65_branch2c"
  top: "bn_block2_65_branch2c"
}
layer {
  name: "conv_block2_65_branch2c"
  type: "Convolution"
  bottom: "bn_block2_65_branch2c"
  top: "conv_block2_65_branch2c"
  convolution_param {
    num_output: 64
    bias_term: false
    pad: 0
    kernel_size: 1
    stride: 1
  }
}
layer {
  name: "addition_block2_65"
  type: "Eltwise"
  bottom: "addition_block2_64"
  bottom: "conv_block2_65_branch2c"
  top: "addition_block2_65"
}
layer {
  name: "bn_block2_66_branch2a"
  type: "BatchNorm"
  bottom: "addition_block2_65"
  top: "bn_block2_66_branch2a"
}
layer {
  name: "scale_block2_66_branch2a"
  type: "Scale"
  bottom: "bn_block2_66_branch2a"
  top: "bn_block2_66_branch2a"
  scale_param {
    bias_term: true
  }
}
layer {
  name: "relu_block2_66_branch2a"
  type: "ReLU"
  bottom: "bn_block2_66_branch2a"
  top: "bn_block2_66_branch2a"
}
layer {
  name: "conv_block2_66_branch2a"
  type: "Convolution"
  bottom: "bn_block2_66_branch2a"
  top: "conv_block2_66_branch2a"
  convolution_param {
    num_output: 16
    bias_term: false
    pad: 0
    kernel_size: 1
    stride: 1
  }
}
layer {
  name: "bn_block2_66_branch2b"
  type: "BatchNorm"
  bottom: "conv_block2_66_branch2a"
  top: "bn_block2_66_branch2b"
}
layer {
  name: "scale_block2_66_branch2b"
  type: "Scale"
  bottom: "bn_block2_66_branch2b"
  top: "bn_block2_66_branch2b"
  scale_param {
    bias_term: true
  }
}
layer {
  name: "relu_block2_66_branch2b"
  type: "ReLU"
  bottom: "bn_block2_66_branch2b"
  top: "bn_block2_66_branch2b"
}
layer {
  name: "conv_block2_66_branch2b"
  type: "Convolution"
  bottom: "bn_block2_66_branch2b"
  top: "conv_block2_66_branch2b"
  convolution_param {
    num_output: 16
    bias_term: false
    pad: 1
    kernel_size: 3
    stride: 1
  }
}
layer {
  name: "bn_block2_66_branch2c"
  type: "BatchNorm"
  bottom: "conv_block2_66_branch2b"
  top: "bn_block2_66_branch2c"
}
layer {
  name: "scale_block2_66_branch2c"
  type: "Scale"
  bottom: "bn_block2_66_branch2c"
  top: "bn_block2_66_branch2c"
  scale_param {
    bias_term: true
  }
}
layer {
  name: "relu_block2_66_branch2c"
  type: "ReLU"
  bottom: "bn_block2_66_branch2c"
  top: "bn_block2_66_branch2c"
}
layer {
  name: "conv_block2_66_branch2c"
  type: "Convolution"
  bottom: "bn_block2_66_branch2c"
  top: "conv_block2_66_branch2c"
  convolution_param {
    num_output: 64
    bias_term: false
    pad: 0
    kernel_size: 1
    stride: 1
  }
}
layer {
  name: "addition_block2_66"
  type: "Eltwise"
  bottom: "addition_block2_65"
  bottom: "conv_block2_66_branch2c"
  top: "addition_block2_66"
}
layer {
  name: "bn_block2_67_branch2a"
  type: "BatchNorm"
  bottom: "addition_block2_66"
  top: "bn_block2_67_branch2a"
}
layer {
  name: "scale_block2_67_branch2a"
  type: "Scale"
  bottom: "bn_block2_67_branch2a"
  top: "bn_block2_67_branch2a"
  scale_param {
    bias_term: true
  }
}
layer {
  name: "relu_block2_67_branch2a"
  type: "ReLU"
  bottom: "bn_block2_67_branch2a"
  top: "bn_block2_67_branch2a"
}
layer {
  name: "conv_block2_67_branch2a"
  type: "Convolution"
  bottom: "bn_block2_67_branch2a"
  top: "conv_block2_67_branch2a"
  convolution_param {
    num_output: 16
    bias_term: false
    pad: 0
    kernel_size: 1
    stride: 1
  }
}
layer {
  name: "bn_block2_67_branch2b"
  type: "BatchNorm"
  bottom: "conv_block2_67_branch2a"
  top: "bn_block2_67_branch2b"
}
layer {
  name: "scale_block2_67_branch2b"
  type: "Scale"
  bottom: "bn_block2_67_branch2b"
  top: "bn_block2_67_branch2b"
  scale_param {
    bias_term: true
  }
}
layer {
  name: "relu_block2_67_branch2b"
  type: "ReLU"
  bottom: "bn_block2_67_branch2b"
  top: "bn_block2_67_branch2b"
}
layer {
  name: "conv_block2_67_branch2b"
  type: "Convolution"
  bottom: "bn_block2_67_branch2b"
  top: "conv_block2_67_branch2b"
  convolution_param {
    num_output: 16
    bias_term: false
    pad: 1
    kernel_size: 3
    stride: 1
  }
}
layer {
  name: "bn_block2_67_branch2c"
  type: "BatchNorm"
  bottom: "conv_block2_67_branch2b"
  top: "bn_block2_67_branch2c"
}
layer {
  name: "scale_block2_67_branch2c"
  type: "Scale"
  bottom: "bn_block2_67_branch2c"
  top: "bn_block2_67_branch2c"
  scale_param {
    bias_term: true
  }
}
layer {
  name: "relu_block2_67_branch2c"
  type: "ReLU"
  bottom: "bn_block2_67_branch2c"
  top: "bn_block2_67_branch2c"
}
layer {
  name: "conv_block2_67_branch2c"
  type: "Convolution"
  bottom: "bn_block2_67_branch2c"
  top: "conv_block2_67_branch2c"
  convolution_param {
    num_output: 64
    bias_term: false
    pad: 0
    kernel_size: 1
    stride: 1
  }
}
layer {
  name: "addition_block2_67"
  type: "Eltwise"
  bottom: "addition_block2_66"
  bottom: "conv_block2_67_branch2c"
  top: "addition_block2_67"
}
layer {
  name: "bn_block2_68_branch2a"
  type: "BatchNorm"
  bottom: "addition_block2_67"
  top: "bn_block2_68_branch2a"
}
layer {
  name: "scale_block2_68_branch2a"
  type: "Scale"
  bottom: "bn_block2_68_branch2a"
  top: "bn_block2_68_branch2a"
  scale_param {
    bias_term: true
  }
}
layer {
  name: "relu_block2_68_branch2a"
  type: "ReLU"
  bottom: "bn_block2_68_branch2a"
  top: "bn_block2_68_branch2a"
}
layer {
  name: "conv_block2_68_branch2a"
  type: "Convolution"
  bottom: "bn_block2_68_branch2a"
  top: "conv_block2_68_branch2a"
  convolution_param {
    num_output: 16
    bias_term: false
    pad: 0
    kernel_size: 1
    stride: 1
  }
}
layer {
  name: "bn_block2_68_branch2b"
  type: "BatchNorm"
  bottom: "conv_block2_68_branch2a"
  top: "bn_block2_68_branch2b"
}
layer {
  name: "scale_block2_68_branch2b"
  type: "Scale"
  bottom: "bn_block2_68_branch2b"
  top: "bn_block2_68_branch2b"
  scale_param {
    bias_term: true
  }
}
layer {
  name: "relu_block2_68_branch2b"
  type: "ReLU"
  bottom: "bn_block2_68_branch2b"
  top: "bn_block2_68_branch2b"
}
layer {
  name: "conv_block2_68_branch2b"
  type: "Convolution"
  bottom: "bn_block2_68_branch2b"
  top: "conv_block2_68_branch2b"
  convolution_param {
    num_output: 16
    bias_term: false
    pad: 1
    kernel_size: 3
    stride: 1
  }
}
layer {
  name: "bn_block2_68_branch2c"
  type: "BatchNorm"
  bottom: "conv_block2_68_branch2b"
  top: "bn_block2_68_branch2c"
}
layer {
  name: "scale_block2_68_branch2c"
  type: "Scale"
  bottom: "bn_block2_68_branch2c"
  top: "bn_block2_68_branch2c"
  scale_param {
    bias_term: true
  }
}
layer {
  name: "relu_block2_68_branch2c"
  type: "ReLU"
  bottom: "bn_block2_68_branch2c"
  top: "bn_block2_68_branch2c"
}
layer {
  name: "conv_block2_68_branch2c"
  type: "Convolution"
  bottom: "bn_block2_68_branch2c"
  top: "conv_block2_68_branch2c"
  convolution_param {
    num_output: 64
    bias_term: false
    pad: 0
    kernel_size: 1
    stride: 1
  }
}
layer {
  name: "addition_block2_68"
  type: "Eltwise"
  bottom: "addition_block2_67"
  bottom: "conv_block2_68_branch2c"
  top: "addition_block2_68"
}
layer {
  name: "bn_block2_69_branch2a"
  type: "BatchNorm"
  bottom: "addition_block2_68"
  top: "bn_block2_69_branch2a"
}
layer {
  name: "scale_block2_69_branch2a"
  type: "Scale"
  bottom: "bn_block2_69_branch2a"
  top: "bn_block2_69_branch2a"
  scale_param {
    bias_term: true
  }
}
layer {
  name: "relu_block2_69_branch2a"
  type: "ReLU"
  bottom: "bn_block2_69_branch2a"
  top: "bn_block2_69_branch2a"
}
layer {
  name: "conv_block2_69_branch2a"
  type: "Convolution"
  bottom: "bn_block2_69_branch2a"
  top: "conv_block2_69_branch2a"
  convolution_param {
    num_output: 16
    bias_term: false
    pad: 0
    kernel_size: 1
    stride: 1
  }
}
layer {
  name: "bn_block2_69_branch2b"
  type: "BatchNorm"
  bottom: "conv_block2_69_branch2a"
  top: "bn_block2_69_branch2b"
}
layer {
  name: "scale_block2_69_branch2b"
  type: "Scale"
  bottom: "bn_block2_69_branch2b"
  top: "bn_block2_69_branch2b"
  scale_param {
    bias_term: true
  }
}
layer {
  name: "relu_block2_69_branch2b"
  type: "ReLU"
  bottom: "bn_block2_69_branch2b"
  top: "bn_block2_69_branch2b"
}
layer {
  name: "conv_block2_69_branch2b"
  type: "Convolution"
  bottom: "bn_block2_69_branch2b"
  top: "conv_block2_69_branch2b"
  convolution_param {
    num_output: 16
    bias_term: false
    pad: 1
    kernel_size: 3
    stride: 1
  }
}
layer {
  name: "bn_block2_69_branch2c"
  type: "BatchNorm"
  bottom: "conv_block2_69_branch2b"
  top: "bn_block2_69_branch2c"
}
layer {
  name: "scale_block2_69_branch2c"
  type: "Scale"
  bottom: "bn_block2_69_branch2c"
  top: "bn_block2_69_branch2c"
  scale_param {
    bias_term: true
  }
}
layer {
  name: "relu_block2_69_branch2c"
  type: "ReLU"
  bottom: "bn_block2_69_branch2c"
  top: "bn_block2_69_branch2c"
}
layer {
  name: "conv_block2_69_branch2c"
  type: "Convolution"
  bottom: "bn_block2_69_branch2c"
  top: "conv_block2_69_branch2c"
  convolution_param {
    num_output: 64
    bias_term: false
    pad: 0
    kernel_size: 1
    stride: 1
  }
}
layer {
  name: "addition_block2_69"
  type: "Eltwise"
  bottom: "addition_block2_68"
  bottom: "conv_block2_69_branch2c"
  top: "addition_block2_69"
}
layer {
  name: "bn_block2_70_branch2a"
  type: "BatchNorm"
  bottom: "addition_block2_69"
  top: "bn_block2_70_branch2a"
}
layer {
  name: "scale_block2_70_branch2a"
  type: "Scale"
  bottom: "bn_block2_70_branch2a"
  top: "bn_block2_70_branch2a"
  scale_param {
    bias_term: true
  }
}
layer {
  name: "relu_block2_70_branch2a"
  type: "ReLU"
  bottom: "bn_block2_70_branch2a"
  top: "bn_block2_70_branch2a"
}
layer {
  name: "conv_block2_70_branch2a"
  type: "Convolution"
  bottom: "bn_block2_70_branch2a"
  top: "conv_block2_70_branch2a"
  convolution_param {
    num_output: 16
    bias_term: false
    pad: 0
    kernel_size: 1
    stride: 1
  }
}
layer {
  name: "bn_block2_70_branch2b"
  type: "BatchNorm"
  bottom: "conv_block2_70_branch2a"
  top: "bn_block2_70_branch2b"
}
layer {
  name: "scale_block2_70_branch2b"
  type: "Scale"
  bottom: "bn_block2_70_branch2b"
  top: "bn_block2_70_branch2b"
  scale_param {
    bias_term: true
  }
}
layer {
  name: "relu_block2_70_branch2b"
  type: "ReLU"
  bottom: "bn_block2_70_branch2b"
  top: "bn_block2_70_branch2b"
}
layer {
  name: "conv_block2_70_branch2b"
  type: "Convolution"
  bottom: "bn_block2_70_branch2b"
  top: "conv_block2_70_branch2b"
  convolution_param {
    num_output: 16
    bias_term: false
    pad: 1
    kernel_size: 3
    stride: 1
  }
}
layer {
  name: "bn_block2_70_branch2c"
  type: "BatchNorm"
  bottom: "conv_block2_70_branch2b"
  top: "bn_block2_70_branch2c"
}
layer {
  name: "scale_block2_70_branch2c"
  type: "Scale"
  bottom: "bn_block2_70_branch2c"
  top: "bn_block2_70_branch2c"
  scale_param {
    bias_term: true
  }
}
layer {
  name: "relu_block2_70_branch2c"
  type: "ReLU"
  bottom: "bn_block2_70_branch2c"
  top: "bn_block2_70_branch2c"
}
layer {
  name: "conv_block2_70_branch2c"
  type: "Convolution"
  bottom: "bn_block2_70_branch2c"
  top: "conv_block2_70_branch2c"
  convolution_param {
    num_output: 64
    bias_term: false
    pad: 0
    kernel_size: 1
    stride: 1
  }
}
layer {
  name: "addition_block2_70"
  type: "Eltwise"
  bottom: "addition_block2_69"
  bottom: "conv_block2_70_branch2c"
  top: "addition_block2_70"
}
layer {
  name: "bn_block2_71_branch2a"
  type: "BatchNorm"
…
  type: "Scale"
  bottom: "bn_block4_89_branch2a"
  top: "bn_block4_89_branch2a"
  scale_param {
    bias_term: true
  }
}
layer {
  name: "relu_block4_89_branch2a"
  type: "ReLU"
  bottom: "bn_block4_89_branch2a"
  top: "bn_block4_89_branch2a"
}
layer {
  name: "conv_block4_89_branch2a"
  type: "Convolution"
  bottom: "bn_block4_89_branch2a"
  top: "conv_block4_89_branch2a"
  convolution_param {
    num_output: 64
    bias_term: false
    pad: 0
    kernel_size: 1
    stride: 1
  }
}
layer {
  name: "bn_block4_89_branch2b"
  type: "BatchNorm"
  bottom: "conv_block4_89_branch2a"
  top: "bn_block4_89_branch2b"
}
layer {
  name: "scale_block4_89_branch2b"
  type: "Scale"
  bottom: "bn_block4_89_branch2b"
  top: "bn_block4_89_branch2b"
  scale_param {
    bias_term: true
  }
}
layer {
  name: "relu_block4_89_branch2b"
  type: "ReLU"
  bottom: "bn_block4_89_branch2b"
  top: "bn_block4_89_branch2b"
}
layer {
  name: "conv_block4_89_branch2b"
  type: "Convolution"
  bottom: "bn_block4_89_branch2b"
  top: "conv_block4_89_branch2b"
  convolution_param {
    num_output: 64
    bias_term: false
    pad: 1
    kernel_size: 3
    stride: 1
  }
}
layer {
  name: "bn_block4_89_branch2c"
  type: "BatchNorm"
  bottom: "conv_block4_89_branch2b"
  top: "bn_block4_89_branch2c"
}
layer {
  name: "scale_block4_89_branch2c"
  type: "Scale"
  bottom: "bn_block4_89_branch2c"
  top: "bn_block4_89_branch2c"
  scale_param {
    bias_term: true
  }
}
layer {
  name: "relu_block4_89_branch2c"
  type: "ReLU"
  bottom: "bn_block4_89_branch2c"
  top: "bn_block4_89_branch2c"
}
layer {
  name: "conv_block4_89_branch2c"
  type: "Convolution"
  bottom: "bn_block4_89_branch2c"
  top: "conv_block4_89_branch2c"
  convolution_param {
    num_output: 256
    bias_term: false
    pad: 0
    kernel_size: 1
    stride: 1
  }
}
layer {
  name: "addition_block4_89"
  type: "Eltwise"
  bottom: "addition_block4_88"
  bottom: "conv_block4_89_branch2c"
  top: "addition_block4_89"
}
layer {
  name: "bn_block4_90_branch2a"
  type: "BatchNorm"
  bottom: "addition_block4_89"
  top: "bn_block4_90_branch2a"
}
layer {
  name: "scale_block4_90_branch2a"
  type: "Scale"
  bottom: "bn_block4_90_branch2a"
  top: "bn_block4_90_branch2a"
  scale_param {
    bias_term: true
  }
}
layer {
  name: "relu_block4_90_branch2a"
  type: "ReLU"
  bottom: "bn_block4_90_branch2a"
  top: "bn_block4_90_branch2a"
}
layer {
  name: "conv_block4_90_branch2a"
  type: "Convolution"
  bottom: "bn_block4_90_branch2a"
  top: "conv_block4_90_branch2a"
  convolution_param {
    num_output: 64
    bias_term: false
    pad: 0
    kernel_size: 1
    stride: 1
  }
}
layer {
  name: "bn_block4_90_branch2b"
  type: "BatchNorm"
  bottom: "conv_block4_90_branch2a"
  top: "bn_block4_90_branch2b"
}
layer {
  name: "scale_block4_90_branch2b"
  type: "Scale"
  bottom: "bn_block4_90_branch2b"
  top: "bn_block4_90_branch2b"
  scale_param {
    bias_term: true
  }
}
layer {
  name: "relu_block4_90_branch2b"
  type: "ReLU"
  bottom: "bn_block4_90_branch2b"
  top: "bn_block4_90_branch2b"
}
layer {
  name: "conv_block4_90_branch2b"
  type: "Convolution"
  bottom: "bn_block4_90_branch2b"
  top: "conv_block4_90_branch2b"
  convolution_param {
    num_output: 64
    bias_term: false
    pad: 1
    kernel_size: 3
    stride: 1
  }
}
layer {
  name: "bn_block4_90_branch2c"
  type: "BatchNorm"
  bottom: "conv_block4_90_branch2b"
  top: "bn_block4_90_branch2c"
}
layer {
  name: "scale_block4_90_branch2c"
  type: "Scale"
  bottom: "bn_block4_90_branch2c"
  top: "bn_block4_90_branch2c"
  scale_param {
    bias_term: true
  }
}
layer {
  name: "relu_block4_90_branch2c"
  type: "ReLU"
  bottom: "bn_block4_90_branch2c"
  top: "bn_block4_90_branch2c"
}
layer {
  name: "conv_block4_90_branch2c"
  type: "Convolution"
  bottom: "bn_block4_90_branch2c"
  top: "conv_block4_90_branch2c"
  convolution_param {
    num_output: 256
    bias_term: false
    pad: 0
    kernel_size: 1
    stride: 1
  }
}
layer {
  name: "addition_block4_90"
  type: "Eltwise"
  bottom: "addition_block4_89"
  bottom: "conv_block4_90_branch2c"
  top: "addition_block4_90"
}
layer {
  name: "bn_block4_91_branch2a"
  type: "BatchNorm"
  bottom: "addition_block4_90"
  top: "bn_block4_91_branch2a"
}
layer {
  name: "scale_block4_91_branch2a"
  type: "Scale"
  bottom: "bn_block4_91_branch2a"
  top: "bn_block4_91_branch2a"
  scale_param {
    bias_term: true
  }
}
layer {
  name: "relu_block4_91_branch2a"
  type: "ReLU"
  bottom: "bn_block4_91_branch2a"
  top: "bn_block4_91_branch2a"
}
layer {
  name: "conv_block4_91_branch2a"
  type: "Convolution"
  bottom: "bn_block4_91_branch2a"
  top: "conv_block4_91_branch2a"
  convolution_param {
    num_output: 64
    bias_term: false
    pad: 0
    kernel_size: 1
    stride: 1
  }
}
layer {
  name: "bn_block4_91_branch2b"
  type: "BatchNorm"
  bottom: "conv_block4_91_branch2a"
  top: "bn_block4_91_branch2b"
}
layer {
  name: "scale_block4_91_branch2b"
  type: "Scale"
  bottom: "bn_block4_91_branch2b"
  top: "bn_block4_91_branch2b"
  scale_param {
    bias_term: true
  }
}
layer {
  name: "relu_block4_91_branch2b"
  type: "ReLU"
  bottom: "bn_block4_91_branch2b"
  top: "bn_block4_91_branch2b"
}
layer {
  name: "conv_block4_91_branch2b"
  type: "Convolution"
  bottom: "bn_block4_91_branch2b"
  top: "conv_block4_91_branch2b"
  convolution_param {
    num_output: 64
    bias_term: false
    pad: 1
    kernel_size: 3
    stride: 1
  }
}
layer {
  name: "bn_block4_91_branch2c"
  type: "BatchNorm"
  bottom: "conv_block4_91_branch2b"
  top: "bn_block4_91_branch2c"
}
layer {
  name: "scale_block4_91_branch2c"
  type: "Scale"
  bottom: "bn_block4_91_branch2c"
  top: "bn_block4_91_branch2c"
  scale_param {
    bias_term: true
  }
}
layer {
  name: "relu_block4_91_branch2c"
  type: "ReLU"
  bottom: "bn_block4_91_branch2c"
  top: "bn_block4_91_branch2c"
}
layer {
  name: "conv_block4_91_branch2c"
  type: "Convolution"
  bottom: "bn_block4_91_branch2c"
  top: "conv_block4_91_branch2c"
  convolution_param {
    num_output: 256
    bias_term: false
    pad: 0
    kernel_size: 1
    stride: 1
  }
}
layer {
  name: "addition_block4_91"
  type: "Eltwise"
  bottom: "addition_block4_90"
  bottom: "conv_block4_91_branch2c"
  top: "addition_block4_91"
}
layer {
  name: "bn_block4_92_branch2a"
  type: "BatchNorm"
  bottom: "addition_block4_91"
  top: "bn_block4_92_branch2a"
}
layer {
  name: "scale_block4_92_branch2a"
  type: "Scale"
  bottom: "bn_block4_92_branch2a"
  top: "bn_block4_92_branch2a"
  scale_param {
    bias_term: true
  }
}
layer {
  name: "relu_block4_92_branch2a"
  type: "ReLU"
  bottom: "bn_block4_92_branch2a"
  top: "bn_block4_92_branch2a"
}
layer {
  name: "conv_block4_92_branch2a"
  type: "Convolution"
  bottom: "bn_block4_92_branch2a"
  top: "conv_block4_92_branch2a"
  convolution_param {
    num_output: 64
    bias_term: false
    pad: 0
    kernel_size: 1
    stride: 1
  }
}
layer {
  name: "bn_block4_92_branch2b"
  type: "BatchNorm"
  bottom: "conv_block4_92_branch2a"
  top: "bn_block4_92_branch2b"
}
layer {
  name: "scale_block4_92_branch2b"
  type: "Scale"
  bottom: "bn_block4_92_branch2b"
  top: "bn_block4_92_branch2b"
  scale_param {
    bias_term: true
  }
}
layer {
  name: "relu_block4_92_branch2b"
  type: "ReLU"
  bottom: "bn_block4_92_branch2b"
  top: "bn_block4_92_branch2b"
}
layer {
  name: "conv_block4_92_branch2b"
  type: "Convolution"
  bottom: "bn_block4_92_branch2b"
  top: "conv_block4_92_branch2b"
  convolution_param {
    num_output: 64
    bias_term: false
    pad: 1
    kernel_size: 3
    stride: 1
  }
}
layer {
  name: "bn_block4_92_branch2c"
  type: "BatchNorm"
  bottom: "conv_block4_92_branch2b"
  top: "bn_block4_92_branch2c"
}
layer {
  name: "scale_block4_92_branch2c"
  type: "Scale"
  bottom: "bn_block4_92_branch2c"
  top: "bn_block4_92_branch2c"
  scale_param {
    bias_term: true
  }
}
layer {
  name: "relu_block4_92_branch2c"
  type: "ReLU"
  bottom: "bn_block4_92_branch2c"
  top: "bn_block4_92_branch2c"
}
layer {
  name: "conv_block4_92_branch2c"
  type: "Convolution"
  bottom: "bn_block4_92_branch2c"
  top: "conv_block4_92_branch2c"
  convolution_param {
    num_output: 256
    bias_term: false
    pad: 0
    kernel_size: 1
    stride: 1
  }
}
layer {
  name: "addition_block4_92"
  type: "Eltwise"
  bottom: "addition_block4_91"
  bottom: "conv_block4_92_branch2c"
  top: "addition_block4_92"
}
layer {
  name: "bn_block4_93_branch2a"
  type: "BatchNorm"
  bottom: "addition_block4_92"
  top: "bn_block4_93_branch2a"
}
layer {
  name: "scale_block4_93_branch2a"
  type: "Scale"
  bottom: "bn_block4_93_branch2a"
  top: "bn_block4_93_branch2a"
  scale_param {
    bias_term: true
  }
}
layer {
  name: "relu_block4_93_branch2a"
  type: "ReLU"
  bottom: "bn_block4_93_branch2a"
  top: "bn_block4_93_branch2a"
}
layer {
  name: "conv_block4_93_branch2a"
  type: "Convolution"
  bottom: "bn_block4_93_branch2a"
  top: "conv_block4_93_branch2a"
  convolution_param {
    num_output: 64
    bias_term: false
    pad: 0
    kernel_size: 1
    stride: 1
  }
}
layer {
  name: "bn_block4_93_branch2b"
  type: "BatchNorm"
  bottom: "conv_block4_93_branch2a"
  top: "bn_block4_93_branch2b"
}
layer {
  name: "scale_block4_93_branch2b"
  type: "Scale"
  bottom: "bn_block4_93_branch2b"
  top: "bn_block4_93_branch2b"
  scale_param {
    bias_term: true
  }
}
layer {
  name: "relu_block4_93_branch2b"
  type: "ReLU"
  bottom: "bn_block4_93_branch2b"
  top: "bn_block4_93_branch2b"
}
layer {
  name: "conv_block4_93_branch2b"
  type: "Convolution"
  bottom: "bn_block4_93_branch2b"
  top: "conv_block4_93_branch2b"
  convolution_param {
    num_output: 64
    bias_term: false
    pad: 1
    kernel_size: 3
    stride: 1
  }
}
layer {
  name: "bn_block4_93_branch2c"
  type: "BatchNorm"
  bottom: "conv_block4_93_branch2b"
  top: "bn_block4_93_branch2c"
}
layer {
  name: "scale_block4_93_branch2c"
  type: "Scale"
  bottom: "bn_block4_93_branch2c"
  top: "bn_block4_93_branch2c"
  scale_param {
    bias_term: true
  }
}
layer {
  name: "relu_block4_93_branch2c"
  type: "ReLU"
  bottom: "bn_block4_93_branch2c"
  top: "bn_block4_93_branch2c"
}
layer {
  name: "conv_block4_93_branch2c"
  type: "Convolution"
  bottom: "bn_block4_93_branch2c"
  top: "conv_block4_93_branch2c"
  convolution_param {
    num_output: 256
    bias_term: false
    pad: 0
    kernel_size: 1
    stride: 1
  }
}
layer {
  name: "addition_block4_93"
  type: "Eltwise"
  bottom: "addition_block4_92"
  bottom: "conv_block4_93_branch2c"
  top: "addition_block4_93"
}
layer {
  name: "bn_block4_94_branch2a"
  type: "BatchNorm"
  bottom: "addition_block4_93"
  top: "bn_block4_94_branch2a"
}
layer {
  name: "scale_block4_94_branch2a"
  type: "Scale"
  bottom: "bn_block4_94_branch2a"
  top: "bn_block4_94_branch2a"
  scale_param {
    bias_term: true
  }
}
layer {
  name: "relu_block4_94_branch2a"
  type: "ReLU"
  bottom: "bn_block4_94_branch2a"
  top: "bn_block4_94_branch2a"
}
layer {
  name: "conv_block4_94_branch2a"
  type: "Convolution"
  bottom: "bn_block4_94_branch2a"
  top: "conv_block4_94_branch2a"
  convolution_param {
    num_output: 64
    bias_term: false
    pad: 0
    kernel_size: 1
    stride: 1
  }
}
layer {
  name: "bn_block4_94_branch2b"
  type: "BatchNorm"
  bottom: "conv_block4_94_branch2a"
  top: "bn_block4_94_branch2b"
}
layer {
  name: "scale_block4_94_branch2b"
  type: "Scale"
  bottom: "bn_block4_94_branch2b"
  top: "bn_block4_94_branch2b"
  scale_param {
    bias_term: true
  }
}
layer {
  name: "relu_block4_94_branch2b"
  type: "ReLU"
  bottom: "bn_block4_94_branch2b"
  top: "bn_block4_94_branch2b"
}
layer {
  name: "conv_block4_94_branch2b"
  type: "Convolution"
  bottom: "bn_block4_94_branch2b"
  top: "conv_block4_94_branch2b"
  convolution_param {
    num_output: 64
    bias_term: false
    pad: 1
    kernel_size: 3
    stride: 1
  }
}
layer {
  name: "bn_block4_94_branch2c"
  type: "BatchNorm"
  bottom: "conv_block4_94_branch2b"
  top: "bn_block4_94_branch2c"
}
layer {
  name: "scale_block4_94_branch2c"
  type: "Scale"
  bottom: "bn_block4_94_branch2c"
  top: "bn_block4_94_branch2c"
  scale_param {
    bias_term: true
  }
}
layer {
  name: "relu_block4_94_branch2c"
  type: "ReLU"
  bottom: "bn_block4_94_branch2c"
  top: "bn_block4_94_branch2c"
}
layer {
  name: "conv_block4_94_branch2c"
  type: "Convolution"
  bottom: "bn_block4_94_branch2c"
  top: "conv_block4_94_branch2c"
  convolution_param {
    num_output: 256
    bias_term: false
    pad: 0
    kernel_size: 1
    stride: 1
  }
}
layer {
  name: "addition_block4_94"
  type: "Eltwise"
  bottom: "addition_block4_93"
  bottom: "conv_block4_94_branch2c"
  top: "addition_block4_94"
}
layer {
  name: "bn_block4_95_branch2a"
  type: "BatchNorm"
  bottom: "addition_block4_94"
  top: "bn_block4_95_branch2a"
}
layer {
  name: "scale_block4_95_branch2a"
  type: "Scale"
  bottom: "bn_block4_95_branch2a"
  top: "bn_block4_95_branch2a"
  scale_param {
    bias_term: true
  }
}
layer {
  name: "relu_block4_95_branch2a"
  type: "ReLU"
  bottom: "bn_block4_95_branch2a"
  top: "bn_block4_95_branch2a"
}
layer {
  name: "conv_block4_95_branch2a"
  type: "Convolution"
  bottom: "bn_block4_95_branch2a"
  top: "conv_block4_95_branch2a"
  convolution_param {
    num_output: 64
    bias_term: false
    pad: 0
    kernel_size: 1
    stride: 1
  }
}
layer {
  name: "bn_block4_95_branch2b"
  type: "BatchNorm"
  bottom: "conv_block4_95_branch2a"
  top: "bn_block4_95_branch2b"
}
layer {
  name: "scale_block4_95_branch2b"
  type: "Scale"
  bottom: "bn_block4_95_branch2b"
  top: "bn_block4_95_branch2b"
  scale_param {
    bias_term: true
  }
}
layer {
  name: "relu_block4_95_branch2b"
  type: "ReLU"
  bottom: "bn_block4_95_branch2b"
  top: "bn_block4_95_branch2b"
}
layer {
  name: "conv_block4_95_branch2b"
  type: "Convolution"
  bottom: "bn_block4_95_branch2b"
  top: "conv_block4_95_branch2b"
  convolution_param {
    num_output: 64
    bias_term: false
    pad: 1
    kernel_size: 3
    stride: 1
  }
}
layer {
  name: "bn_block4_95_branch2c"
  type: "BatchNorm"
  bottom: "conv_block4_95_branch2b"
  top: "bn_block4_95_branch2c"
}
layer {
  name: "scale_block4_95_branch2c"
  type: "Scale"
  bottom: "bn_block4_95_branch2c"
  top: "bn_block4_95_branch2c"
  scale_param {
    bias_term: true
  }
}
layer {
  name: "relu_block4_95_branch2c"
  type: "ReLU"
  bottom: "bn_block4_95_branch2c"
  top: "bn_block4_95_branch2c"
}
layer {
  name: "conv_block4_95_branch2c"
  type: "Convolution"
  bottom: "bn_block4_95_branch2c"
  top: "conv_block4_95_branch2c"
  convolution_param {
    num_output: 256
    bias_term: false
    pad: 0
    kernel_size: 1
    stride: 1
  }
}
layer {
  name: "addition_block4_95"
  type: "Eltwise"
  bottom: "addition_block4_94"
  bottom: "conv_block4_95_branch2c"
  top: "addition_block4_95"
}
layer {
  name: "bn_block4_96_branch2a"
  type: "BatchNorm"
  bottom: "addition_block4_95"
  top: "bn_block4_96_branch2a"
}
layer {
  name: "scale_block4_96_branch2a"
  type: "Scale"
  bottom: "bn_block4_96_branch2a"
  top: "bn_block4_96_branch2a"
  scale_param {
    bias_term: true
  }
}
layer {
  name: "relu_block4_96_branch2a"
  type: "ReLU"
  bottom: "bn_block4_96_branch2a"
  top: "bn_block4_96_branch2a"
}
layer {
  name: "conv_block4_96_branch2a"
  type: "Convolution"
  bottom: "bn_block4_96_branch2a"
  top: "conv_block4_96_branch2a"
  convolution_param {
    num_output: 64
    bias_term: false
    pad: 0
    kernel_size: 1
    stride: 1
  }
}
layer {
  name: "bn_block4_96_branch2b"
  type: "BatchNorm"
  bottom: "conv_block4_96_branch2a"
  top: "bn_block4_96_branch2b"
}
layer {
  name: "scale_block4_96_branch2b"
  type: "Scale"
  bottom: "bn_block4_96_branch2b"
  top: "bn_block4_96_branch2b"
  scale_param {
    bias_term: true
  }
}
layer {
  name: "relu_block4_96_branch2b"
  type: "ReLU"
  bottom: "bn_block4_96_branch2b"
  top: "bn_block4_96_branch2b"
}
layer {
  name: "conv_block4_96_branch2b"
  type: "Convolution"
  bottom: "bn_block4_96_branch2b"
  top: "conv_block4_96_branch2b"
  convolution_param {
    num_output: 64
    bias_term: false
    pad: 1
    kernel_size: 3
    stride: 1
  }
}
layer {
  name: "bn_block4_96_branch2c"
  type: "BatchNorm"
  bottom: "conv_block4_96_branch2b"
  top: "bn_block4_96_branch2c"
}
layer {
  name: "scale_block4_96_branch2c"
  type: "Scale"
  bottom: "bn_block4_96_branch2c"
  top: "bn_block4_96_branch2c"
  scale_param {
    bias_term: true
  }
}
layer {
  name: "relu_block4_96_branch2c"
  type: "ReLU"
  bottom: "bn_block4_96_branch2c"
  top: "bn_block4_96_branch2c"
}
layer {
  name: "conv_block4_96_branch2c"
  type: "Convolution"
  bottom: "bn_block4_96_branch2c"
  top: "conv_block4_96_branch2c"
  convolution_param {
    num_output: 256
    bias_term: false
    pad: 0
    kernel_size: 1
    stride: 1
  }
}
layer {
  name: "addition_block4_96"
  type: "Eltwise"
  bottom: "addition_block4_95"
  bottom: "conv_block4_96_branch2c"
  top: "addition_block4_96"
}
layer {
  name: "bn_block4_97_branch2a"
  type: "BatchNorm"
  bottom: "addition_block4_96"
  top: "bn_block4_97_branch2a"
}
layer {
  name: "scale_block4_97_branch2a"
  type: "Scale"
  bottom: "bn_block4_97_branch2a"
  top: "bn_block4_97_branch2a"
  scale_param {
    bias_term: true
  }
}
layer {
  name: "relu_block4_97_branch2a"
  type: "ReLU"
  bottom: "bn_block4_97_branch2a"
  top: "bn_block4_97_branch2a"
}
layer {
  name: "conv_block4_97_branch2a"
  type: "Convolution"
  bottom: "bn_block4_97_branch2a"
  top: "conv_block4_97_branch2a"
  convolution_param {
    num_output: 64
    bias_term: false
    pad: 0
    kernel_size: 1
    stride: 1
  }
}
layer {
  name: "bn_block4_97_branch2b"
  type: "BatchNorm"
  bottom: "conv_block4_97_branch2a"
  top: "bn_block4_97_branch2b"
}
layer {
  name: "scale_block4_97_branch2b"
  type: "Scale"
  bottom: "bn_block4_97_branch2b"
  top: "bn_block4_97_branch2b"
  scale_param {
    bias_term: true
  }
}
layer {
  name: "relu_block4_97_branch2b"
  type: "ReLU"
  bottom: "bn_block4_97_branch2b"
  top: "bn_block4_97_branch2b"
}
layer {
  name: "conv_block4_97_branch2b"
  type: "Convolution"
  bottom: "bn_block4_97_branch2b"
  top: "conv_block4_97_branch2b"
  convolution_param {
    num_output: 64
    bias_term: false
    pad: 1
    kernel_size: 3
    stride: 1
  }
}
layer {
  name: "bn_block4_97_branch2c"
  type: "BatchNorm"
  bottom: "conv_block4_97_branch2b"
  top: "bn_block4_97_branch2c"
}
layer {
  name: "scale_block4_97_branch2c"
  type: "Scale"
  bottom: "bn_block4_97_branch2c"
  top: "bn_block4_97_branch2c"
  scale_param {
    bias_term: true
  }
}
layer {
  name: "relu_block4_97_branch2c"
  type: "ReLU"
  bottom: "bn_block4_97_branch2c"
  top: "bn_block4_97_branch2c"
}
layer {
  name: "conv_block4_97_branch2c"
  type: "Convolution"
  bottom: "bn_block4_97_branch2c"
  top: "conv_block4_97_branch2c"
  convolution_param {
    num_output: 256
    bias_term: false
    pad: 0
    kernel_size: 1
    stride: 1
  }
}
layer {
  name: "addition_block4_97"
  type: "Eltwise"
  bottom: "addition_block4_96"
  bottom: "conv_block4_97_branch2c"
  top: "addition_block4_97"
}
layer {
  name: "bn_block4_98_branch2a"
  type: "BatchNorm"
  bottom: "addition_block4_97"
  top: "bn_block4_98_branch2a"
}
layer {
  name: "scale_block4_98_branch2a"
  type: "Scale"
  bottom: "bn_block4_98_branch2a"
  top: "bn_block4_98_branch2a"
  scale_param {
    bias_term: true
  }
}
layer {
  name: "relu_block4_98_branch2a"
  type: "ReLU"
  bottom: "bn_block4_98_branch2a"
  top: "bn_block4_98_branch2a"
}
layer {
  name: "conv_block4_98_branch2a"
  type: "Convolution"
  bottom: "bn_block4_98_branch2a"
  top: "conv_block4_98_branch2a"
  convolution_param {
    num_output: 64
    bias_term: false
    pad: 0
    kernel_size: 1
    stride: 1
  }
}
layer {
  name: "bn_block4_98_branch2b"
  type: "BatchNorm"
  bottom: "conv_block4_98_branch2a"
  top: "bn_block4_98_branch2b"
}
layer {
  name: "scale_block4_98_branch2b"
  type: "Scale"
  bottom: "bn_block4_98_branch2b"
  top: "bn_block4_98_branch2b"
  scale_param {
    bias_term: true
  }
}
layer {
  name: "relu_block4_98_branch2b"
  type: "ReLU"
  bottom: "bn_block4_98_branch2b"
  top: "bn_block4_98_branch2b"
}
layer {
  name: "conv_block4_98_branch2b"
  type: "Convolution"
  bottom: "bn_block4_98_branch2b"
  top: "conv_block4_98_branch2b"
  convolution_param {
    num_output: 64
    bias_term: false
    pad: 1
    kernel_size: 3
    stride: 1
  }
}
layer {
  name: "bn_block4_98_branch2c"
  type: "BatchNorm"
  bottom: "conv_block4_98_branch2b"
  top: "bn_block4_98_branch2c"
}
layer {
  name: "scale_block4_98_branch2c"
  type: "Scale"
  bottom: "bn_block4_98_branch2c"
  top: "bn_block4_98_branch2c"
  scale_param {
    bias_term: true
  }
}
layer {
  name: "relu_block4_98_branch2c"
  type: "ReLU"
  bottom: "bn_block4_98_branch2c"
  top: "bn_block4_98_branch2c"
}
layer {
  name: "conv_block4_98_branch2c"
  type: "Convolution"
  bottom: "bn_block4_98_branch2c"
  top: "conv_block4_98_branch2c"
  convolution_param {
    num_output: 256
    bias_term: false
    pad: 0
    kernel_size: 1
    stride: 1
  }
}
layer {
  name: "addition_block4_98"
  type: "Eltwise"
  bottom: "addition_block4_97"
  bottom: "conv_block4_98_branch2c"
  top: "addition_block4_98"
}
layer {
  name: "bn_block4_99_branch2a"
  type: "BatchNorm"
  bottom: "addition_block4_98"
  top: "bn_block4_99_branch2a"
}
layer {
  name: "scale_block4_99_branch2a"
  type: "Scale"
  bottom: "bn_block4_99_branch2a"
  top: "bn_block4_99_branch2a"
  scale_param {
    bias_term: true
  }
}
layer {
  name: "relu_block4_99_branch2a"
  type: "ReLU"
  bottom: "bn_block4_99_branch2a"
  top: "bn_block4_99_branch2a"
}
layer {
  name: "conv_block4_99_branch2a"
  type: "Convolution"
  bottom: "bn_block4_99_branch2a"
  top: "conv_block4_99_branch2a"
  convolution_param {
    num_output: 64
    bias_term: false
    pad: 0
    kernel_size: 1
    stride: 1
  }
}
layer {
  name: "bn_block4_99_branch2b"
  type: "BatchNorm"
  bottom: "conv_block4_99_branch2a"
  top: "bn_block4_99_branch2b"
}
layer {
  name: "scale_block4_99_branch2b"
  type: "Scale"
  bottom: "bn_block4_99_branch2b"
  top: "bn_block4_99_branch2b"
  scale_param {
    bias_term: true
  }
}
layer {
  name: "relu_block4_99_branch2b"
  type: "ReLU"
  bottom: "bn_block4_99_branch2b"
  top: "bn_block4_99_branch2b"
}
layer {
  name: "conv_block4_99_branch2b"
  type: "Convolution"
  bottom: "bn_block4_99_branch2b"
  top: "conv_block4_99_branch2b"
  convolution_param {
    num_output: 64
    bias_term: false
    pad: 1
    kernel_size: 3
    stride: 1
  }
}
layer {
  name: "bn_block4_99_branch2c"
  type: "BatchNorm"
  bottom: "conv_block4_99_branch2b"
  top: "bn_block4_99_branch2c"
}
layer {
  name: "scale_block4_99_branch2c"
  type: "Scale"
  bottom: "bn_block4_99_branch2c"
  top: "bn_block4_99_branch2c"
  scale_param {
    bias_term: true
  }
}
layer {
  name: "relu_block4_99_branch2c"
  type: "ReLU"
  bottom: "bn_block4_99_branch2c"
  top: "bn_block4_99_branch2c"
}
layer {
  name: "conv_block4_99_branch2c"
  type: "Convolution"
  bottom: "bn_block4_99_branch2c"
  top: "conv_block4_99_branch2c"
  convolution_param {
    num_output: 256
    bias_term: false
    pad: 0
    kernel_size: 1
    stride: 1
  }
}
layer {
  name: "addition_block4_99"
  type: "Eltwise"
  bottom: "addition_block4_98"
  bottom: "conv_block4_99_branch2c"
  top: "addition_block4_99"
}
layer {
  name: "bn_block4_100_branch2a"
  type: "BatchNorm"
  bottom: "addition_block4_99"
  top: "bn_block4_100_branch2a"
}
layer {
  name: "scale_block4_100_branch2a"
  type: "Scale"
  bottom: "bn_block4_100_branch2a"
  top: "bn_block4_100_branch2a"
  scale_param {
    bias_term: true
  }
}
layer {
  name: "relu_block4_100_branch2a"
  type: "ReLU"
  bottom: "bn_block4_100_branch2a"
  top: "bn_block4_100_branch2a"
}
layer {
  name: "conv_block4_100_branch2a"
  type: "Convolution"
  bottom: "bn_block4_100_branch2a"
  top: "conv_block4_100_branch2a"
  convolution_param {
    num_output: 64
    bias_term: false
    pad: 0
    kernel_size: 1
    stride: 1
  }
}
layer {
  name: "bn_block4_100_branch2b"
  type: "BatchNorm"
  bottom: "conv_block4_100_branch2a"
  top: "bn_block4_100_branch2b"
}
layer {
  name: "scale_block4_100_branch2b"
  type: "Scale"
  bottom: "bn_block4_100_branch2b"
  top: "bn_block4_100_branch2b"
  scale_param {
    bias_term: true
  }
}
layer {
  name: "relu_block4_100_branch2b"
  type: "ReLU"
  bottom: "bn_block4_100_branch2b"
  top: "bn_block4_100_branch2b"
}
layer {
  name: "conv_block4_100_branch2b"
  type: "Convolution"
  bottom: "bn_block4_100_branch2b"
  top: "conv_block4_100_branch2b"
  convolution_param {
    num_output: 64
    bias_term: false
    pad: 1
    kernel_size: 3
    stride: 1
  }
}
layer {
  name: "bn_block4_100_branch2c"
  type: "BatchNorm"
  bottom: "conv_block4_100_branch2b"
  top: "bn_block4_100_branch2c"
}
layer {
  name: "scale_block4_100_branch2c"
  type: "Scale"
  bottom: "bn_block4_100_branch2c"
  top: "bn_block4_100_branch2c"
  scale_param {
    bias_term: true
  }
}
layer {
  name: "relu_block4_100_branch2c"
  type: "ReLU"
  bottom: "bn_block4_100_branch2c"
  top: "bn_block4_100_branch2c"
}
layer {
  name: "conv_block4_100_branch2c"
  type: "Convolution"
  bottom: "bn_block4_100_branch2c"
  top: "conv_block4_100_branch2c"
  convolution_param {
    num_output: 256
    bias_term: false
    pad: 0
    kernel_size: 1
    stride: 1
  }
}
layer {
  name: "addition_block4_100"
  type: "Eltwise"
  bottom: "addition_block4_99"
  bottom: "conv_block4_100_branch2c"
  top: "addition_block4_100"
}
layer {
  name: "bn_block4_101_branch2a"
  type: "BatchNorm"
  bottom: "addition_block4_100"
  top: "bn_block4_101_branch2a"
}
layer {
  name: "scale_block4_101_branch2a"
  type: "Scale"
  bottom: "bn_block4_101_branch2a"
  top: "bn_block4_101_branch2a"
  scale_param {
    bias_term: true
  }
}
layer {
  name: "relu_block4_101_branch2a"
  type: "ReLU"
  bottom: "bn_block4_101_branch2a"
  top: "bn_block4_101_branch2a"
}
layer {
  name: "conv_block4_101_branch2a"
  type: "Convolution"
  bottom: "bn_block4_101_branch2a"
  top: "conv_block4_101_branch2a"
  convolution_param {
    num_output: 64
    bias_term: false
    pad: 0
    kernel_size: 1
    stride: 1
  }
}
layer {
  name: "bn_block4_101_branch2b"
  type: "BatchNorm"
  bottom: "conv_block4_101_branch2a"
  top: "bn_block4_101_branch2b"
}
layer {
  name: "scale_block4_101_branch2b"
  type: "Scale"
  bottom: "bn_block4_101_branch2b"
  top: "bn_block4_101_branch2b"
  scale_param {
    bias_term: true
  }
}
layer {
  name: "relu_block4_101_branch2b"
  type: "ReLU"
  bottom: "bn_block4_101_branch2b"
  top: "bn_block4_101_branch2b"
}
layer {
  name: "conv_block4_101_branch2b"
  type: "Convolution"
  bottom: "bn_block4_101_branch2b"
  top: "conv_block4_101_branch2b"
  convolution_param {
    num_output: 64
    bias_term: false
    pad: 1
    kernel_size: 3
    stride: 1
  }
}
layer {
  name: "bn_block4_101_branch2c"
  type: "BatchNorm"
  bottom: "conv_block4_101_branch2b"
  top: "bn_block4_101_branch2c"
}
layer {
  name: "scale_block4_101_branch2c"
  type: "Scale"
  bottom: "bn_block4_101_branch2c"
  top: "bn_block4_101_branch2c"
  scale_param {
    bias_term: true
  }
}
layer {
  name: "relu_block4_101_branch2c"
  type: "ReLU"
  bottom: "bn_block4_101_branch2c"
  top: "bn_block4_101_branch2c"
}
layer {
  name: "conv_block4_101_branch2c"
  type: "Convolution"
  bottom: "bn_block4_101_branch2c"
  top: "conv_block4_101_branch2c"
  convolution_param {
    num_output: 256
    bias_term: false
    pad: 0
    kernel_size: 1
    stride: 1
  }
}
layer {
  name: "addition_block4_101"
  type: "Eltwise"
  bottom: "addition_block4_100"
  bottom: "conv_block4_101_branch2c"
  top: "addition_block4_101"
}
layer {
  name: "bn_block4_102_branch2a"
  type: "BatchNorm"
  bottom: "addition_block4_101"
  top: "bn_block4_102_branch2a"
}
layer {
  name: "scale_block4_102_branch2a"
  type: "Scale"
  bottom: "bn_block4_102_branch2a"
  top: "bn_block4_102_branch2a"
  scale_param {
    bias_term: true
  }
}
layer {
  name: "relu_block4_102_branch2a"
  type: "ReLU"
  bottom: "bn_block4_102_branch2a"
  top: "bn_block4_102_branch2a"
}
layer {
  name: "conv_block4_102_branch2a"
  type: "Convolution"
  bottom: "bn_block4_102_branch2a"
  top: "conv_block4_102_branch2a"
  convolution_param {
    num_output: 64
    bias_term: false
    pad: 0
    kernel_size: 1
    stride: 1
  }
}
layer {
  name: "bn_block4_102_branch2b"
  type: "BatchNorm"
  bottom: "conv_block4_102_branch2a"
  top: "bn_block4_102_branch2b"
}
layer {
  name: "scale_block4_102_branch2b"
  type: "Scale"
  bottom: "bn_block4_102_branch2b"
  top: "bn_block4_102_branch2b"
  scale_param {
    bias_term: true
  }
}
layer {
  name: "relu_block4_102_branch2b"
  type: "ReLU"
  bottom: "bn_block4_102_branch2b"
  top: "bn_block4_102_branch2b"
}
layer {
  name: "conv_block4_102_branch2b"
  type: "Convolution"
  bottom: "bn_block4_102_branch2b"
  top: "conv_block4_102_branch2b"
  convolution_param {
    num_output: 64
    bias_term: false
    pad: 1
    kernel_size: 3
    stride: 1
  }
}
layer {
  name: "bn_block4_102_branch2c"
  type: "BatchNorm"
  bottom: "conv_block4_102_branch2b"
  top: "bn_block4_102_branch2c"
}
layer {
  name: "scale_block4_102_branch2c"
  type: "Scale"
  bottom: "bn_block4_102_branch2c"
  top: "bn_block4_102_branch2c"
  scale_param {
    bias_term: true
  }
}
layer {
  name: "relu_block4_102_branch2c"
  type: "ReLU"
  bottom: "bn_block4_102_branch2c"
  top: "bn_block4_102_branch2c"
}
layer {
  name: "conv_block4_102_branch2c"
  type: "Convolution"
  bottom: "bn_block4_102_branch2c"
  top: "conv_block4_102_branch2c"
  convolution_param {
    num_output: 256
    bias_term: false
    pad: 0
    kernel_size: 1
    stride: 1
  }
}
layer {
  name: "addition_block4_102"
  type: "Eltwise"
  bottom: "addition_block4_101"
  bottom: "conv_block4_102_branch2c"
  top: "addition_block4_102"
}
layer {
  name: "bn_block4_103_branch2a"
  type: "BatchNorm"
  bottom: "addition_block4_102"
  top: "bn_block4_103_branch2a"
}
layer {
  name: "scale_block4_103_branch2a"
  type: "Scale"
  bottom: "bn_block4_103_branch2a"
  top: "bn_block4_103_branch2a"
  scale_param {
    bias_term: true
  }
}
layer {
  name: "relu_block4_103_branch2a"
  type: "ReLU"
  bottom: "bn_block4_103_branch2a"
  top: "bn_block4_103_branch2a"
}
layer {
  name: "conv_block4_103_branch2a"
  type: "Convolution"
  bottom: "bn_block4_103_branch2a"
  top: "conv_block4_103_branch2a"
  convolution_param {
    num_output: 64
    bias_term: false
    pad: 0
    kernel_size: 1
    stride: 1
  }
}
layer {
  name: "bn_block4_103_branch2b"
  type: "BatchNorm"
  bottom: "conv_block4_103_branch2a"
  top: "bn_block4_103_branch2b"
}
layer {
  name: "scale_block4_103_branch2b"
  type: "Scale"
  bottom: "bn_block4_103_branch2b"
  top: "bn_block4_103_branch2b"
  scale_param {
    bias_term: true
  }
}
layer {
  name: "relu_block4_103_branch2b"
  type: "ReLU"
  bottom: "bn_block4_103_branch2b"
  top: "bn_block4_103_branch2b"
}
layer {
  name: "conv_block4_103_branch2b"
  type: "Convolution"
  bottom: "bn_block4_103_branch2b"
  top: "conv_block4_103_branch2b"
  convolution_param {
    num_output: 64
    bias_term: false
    pad: 1
    kernel_size: 3
    stride: 1
  }
}
layer {
  name: "bn_block4_103_branch2c"
  type: "BatchNorm"
  bottom: "conv_block4_103_branch2b"
  top: "bn_block4_103_branch2c"
}
layer {
  name: "scale_block4_103_branch2c"
  type: "Scale"
  bottom: "bn_block4_103_branch2c"
  top: "bn_block4_103_branch2c"
  scale_param {
    bias_term: true
  }
}
layer {
  name: "relu_block4_103_branch2c"
  type: "ReLU"
  bottom: "bn_block4_103_branch2c"
  top: "bn_block4_103_branch2c"
}
layer {
  name: "conv_block4_103_branch2c"
  type: "Convolution"
  bottom: "bn_block4_103_branch2c"
  top: "conv_block4_103_branch2c"
  convolution_param {
    num_output: 256
    bias_term: false
    pad: 0
    kernel_size: 1
    stride: 1
  }
}
layer {
  name: "addition_block4_103"
  type: "Eltwise"
  bottom: "addition_block4_102"
  bottom: "conv_block4_103_branch2c"
  top: "addition_block4_103"
}
layer {
  name: "bn_block4_104_branch2a"
  type: "BatchNorm"
  bottom: "addition_block4_103"
  top: "bn_block4_104_branch2a"
}
layer {
  name: "scale_block4_104_branch2a"
  type: "Scale"
  bottom: "bn_block4_104_branch2a"
  top: "bn_block4_104_branch2a"
  scale_param {
    bias_term: true
  }
}
layer {
  name: "relu_block4_104_branch2a"
  type: "ReLU"
  bottom: "bn_block4_104_branch2a"
  top: "bn_block4_104_branch2a"
}
layer {
  name: "conv_block4_104_branch2a"
  type: "Convolution"
  bottom: "bn_block4_104_branch2a"
  top: "conv_block4_104_branch2a"
  convolution_param {
    num_output: 64
    bias_term: false
    pad: 0
    kernel_size: 1
    stride: 1
  }
}
layer {
  name: "bn_block4_104_branch2b"
  type: "BatchNorm"
  bottom: "conv_block4_104_branch2a"
  top: "bn_block4_104_branch2b"
}
layer {
  name: "scale_block4_104_branch2b"
  type: "Scale"
  bottom: "bn_block4_104_branch2b"
  top: "bn_block4_104_branch2b"
  scale_param {
    bias_term: true
  }
}
layer {
  name: "relu_block4_104_branch2b"
  type: "ReLU"
  bottom: "bn_block4_104_branch2b"
  top: "bn_block4_104_branch2b"
}
layer {
  name: "conv_block4_104_branch2b"
  type: "Convolution"
  bottom: "bn_block4_104_branch2b"
  top: "conv_block4_104_branch2b"
  convolution_param {
    num_output: 64
    bias_term: false
    pad: 1
    kernel_size: 3
    stride: 1
  }
}
layer {
  name: "bn_block4_104_branch2c"
  type: "BatchNorm"
  bottom: "conv_block4_104_branch2b"
  top: "bn_block4_104_branch2c"
}
layer {
  name: "scale_block4_104_branch2c"
  type: "Scale"
  bottom: "bn_block4_104_branch2c"
  top: "bn_block4_104_branch2c"
  scale_param {
    bias_term: true
  }
}
layer {
  name: "relu_block4_104_branch2c"
  type: "ReLU"
  bottom: "bn_block4_104_branch2c"
  top: "bn_block4_104_branch2c"
}
layer {
  name: "conv_block4_104_branch2c"
  type: "Convolution"
  bottom: "bn_block4_104_branch2c"
  top: "conv_block4_104_branch2c"
  convolution_param {
    num_output: 256
    bias_term: false
    pad: 0
    kernel_size: 1
    stride: 1
  }
}
layer {
  name: "addition_block4_104"
  type: "Eltwise"
  bottom: "addition_block4_103"
  bottom: "conv_block4_104_branch2c"
  top: "addition_block4_104"
}
layer {
  name: "bn_block4_105_branch2a"
  type: "BatchNorm"
  bottom: "addition_block4_104"
  top: "bn_block4_105_branch2a"
}
layer {
  name: "scale_block4_105_branch2a"
  type: "Scale"
  bottom: "bn_block4_105_branch2a"
  top: "bn_block4_105_branch2a"
  scale_param {
    bias_term: true
  }
}
layer {
  name: "relu_block4_105_branch2a"
  type: "ReLU"
  bottom: "bn_block4_105_branch2a"
  top: "bn_block4_105_branch2a"
}
layer {
  name: "conv_block4_105_branch2a"
  type: "Convolution"
  bottom: "bn_block4_105_branch2a"
  top: "conv_block4_105_branch2a"
  convolution_param {
    num_output: 64
    bias_term: false
    pad: 0
    kernel_size: 1
    stride: 1
  }
}
layer {
  name: "bn_block4_105_branch2b"
  type: "BatchNorm"
  bottom: "conv_block4_105_branch2a"
  top: "bn_block4_105_branch2b"
}
layer {
  name: "scale_block4_105_branch2b"
  type: "Scale"
  bottom: "bn_block4_105_branch2b"
  top: "bn_block4_105_branch2b"
  scale_param {
    bias_term: true
  }
}
layer {
  name: "relu_block4_105_branch2b"
  type: "ReLU"
  bottom: "bn_block4_105_branch2b"
  top: "bn_block4_105_branch2b"
}
layer {
  name: "conv_block4_105_branch2b"
  type: "Convolution"
  bottom: "bn_block4_105_branch2b"
  top: "conv_block4_105_branch2b"
  convolution_param {
    num_output: 64
    bias_term: false
    pad: 1
    kernel_size: 3
    stride: 1
  }
}
layer {
  name: "bn_block4_105_branch2c"
  type: "BatchNorm"
  bottom: "conv_block4_105_branch2b"
  top: "bn_block4_105_branch2c"
}
layer {
  name: "scale_block4_105_branch2c"
  type: "Scale"
  bottom: "bn_block4_105_branch2c"
  top: "bn_block4_105_branch2c"
  scale_param {
    bias_term: true
  }
}
layer {
  name: "relu_block4_105_branch2c"
  type: "ReLU"
  bottom: "bn_block4_105_branch2c"
  top: "bn_block4_105_branch2c"
}
layer {
  name: "conv_block4_105_branch2c"
  type: "Convolution"
  bottom: "bn_block4_105_branch2c"
  top: "conv_block4_105_branch2c"
  convolution_param {
    num_output: 256
    bias_term: false
    pad: 0
    kernel_size: 1
    stride: 1
  }
}
layer {
  name: "addition_block4_105"
  type: "Eltwise"
  bottom: "addition_block4_104"
  bottom: "conv_block4_105_branch2c"
  top: "addition_block4_105"
}
layer {
  name: "bn_block4_106_branch2a"
  type: "BatchNorm"
  bottom: "addition_block4_105"
  top: "bn_block4_106_branch2a"
}
layer {
  name: "scale_block4_106_branch2a"
  type: "Scale"
  bottom: "bn_block4_106_branch2a"
  top: "bn_block4_106_branch2a"
  scale_param {
    bias_term: true
  }
}
layer {
  name: "relu_block4_106_branch2a"
  type: "ReLU"
  bottom: "bn_block4_106_branch2a"
  top: "bn_block4_106_branch2a"
}
layer {
  name: "conv_block4_106_branch2a"
  type: "Convolution"
  bottom: "bn_block4_106_branch2a"
  top: "conv_block4_106_branch2a"
  convolution_param {
    num_output: 64
    bias_term: false
    pad: 0
    kernel_size: 1
    stride: 1
  }
}
layer {
  name: "bn_block4_106_branch2b"
  type: "BatchNorm"
  bottom: "conv_block4_106_branch2a"
  top: "bn_block4_106_branch2b"
}
layer {
  name: "scale_block4_106_branch2b"
  type: "Scale"
  bottom: "bn_block4_106_branch2b"
  top: "bn_block4_106_branch2b"
  scale_param {
    bias_term: true
  }
}
layer {
  name: "relu_block4_106_branch2b"
  type: "ReLU"
  bottom: "bn_block4_106_branch2b"
  top: "bn_block4_106_branch2b"
}
layer {
  name: "conv_block4_106_branch2b"
  type: "Convolution"
  bottom: "bn_block4_106_branch2b"
  top: "conv_block4_106_branch2b"
  convolution_param {
    num_output: 64
    bias_term: false
    pad: 1
    kernel_size: 3
    stride: 1
  }
}
layer {
  name: "bn_block4_106_branch2c"
  type: "BatchNorm"
  bottom: "conv_block4_106_branch2b"
  top: "bn_block4_106_branch2c"
}
layer {
  name: "scale_block4_106_branch2c"
  type: "Scale"
  bottom: "bn_block4_106_branch2c"
  top: "bn_block4_106_branch2c"
  scale_param {
    bias_term: true
  }
}
layer {
  name: "relu_block4_106_branch2c"
  type: "ReLU"
  bottom: "bn_block4_106_branch2c"
  top: "bn_block4_106_branch2c"
}
layer {
  name: "conv_block4_106_branch2c"
  type: "Convolution"
  bottom: "bn_block4_106_branch2c"
  top: "conv_block4_106_branch2c"
  convolution_param {
    num_output: 256
    bias_term: false
    pad: 0
    kernel_size: 1
    stride: 1
  }
}
layer {
  name: "addition_block4_106"
  type: "Eltwise"
  bottom: "addition_block4_105"
  bottom: "conv_block4_106_branch2c"
  top: "addition_block4_106"
}
layer {
  name: "bn_block4_107_branch2a"
  type: "BatchNorm"
  bottom: "addition_block4_106"
  top: "bn_block4_107_branch2a"
}
layer {
  name: "scale_block4_107_branch2a"
  type: "Scale"
  bottom: "bn_block4_107_branch2a"
  top: "bn_block4_107_branch2a"
  scale_param {
    bias_term: true
  }
}
layer {
  name: "relu_block4_107_branch2a"
  type: "ReLU"
  bottom: "bn_block4_107_branch2a"
  top: "bn_block4_107_branch2a"
}
layer {
  name: "conv_block4_107_branch2a"
  type: "Convolution"
  bottom: "bn_block4_107_branch2a"
  top: "conv_block4_107_branch2a"
  convolution_param {
    num_output: 64
    bias_term: false
    pad: 0
    kernel_size: 1
    stride: 1
  }
}
layer {
  name: "bn_block4_107_branch2b"
  type: "BatchNorm"
  bottom: "conv_block4_107_branch2a"
  top: "bn_block4_107_branch2b"
}
layer {
  name: "scale_block4_107_branch2b"
  type: "Scale"
  bottom: "bn_block4_107_branch2b"
  top: "bn_block4_107_branch2b"
  scale_param {
    bias_term: true
  }
}
layer {
  name: "relu_block4_107_branch2b"
  type: "ReLU"
  bottom: "bn_block4_107_branch2b"
  top: "bn_block4_107_branch2b"
}
layer {
  name: "conv_block4_107_branch2b"
  type: "Convolution"
  bottom: "bn_block4_107_branch2b"
  top: "conv_block4_107_branch2b"
  convolution_param {
    num_output: 64
    bias_term: false
    pad: 1
    kernel_size: 3
    stride: 1
  }
}
layer {
  name: "bn_block4_107_branch2c"
  type: "BatchNorm"
  bottom: "conv_block4_107_branch2b"
  top: "bn_block4_107_branch2c"
}
layer {
  name: "scale_block4_107_branch2c"
  type: "Scale"
  bottom: "bn_block4_107_branch2c"
  top: "bn_block4_107_branch2c"
  scale_param {
    bias_term: true
  }
}
layer {
  name: "relu_block4_107_branch2c"
  type: "ReLU"
  bottom: "bn_block4_107_branch2c"
  top: "bn_block4_107_branch2c"
}
layer {
  name: "conv_block4_107_branch2c"
  type: "Convolution"
  bottom: "bn_block4_107_branch2c"
  top: "conv_block4_107_branch2c"
  convolution_param {
    num_output: 256
    bias_term: false
    pad: 0
    kernel_size: 1
    stride: 1
  }
}
layer {
  name: "addition_block4_107"
  type: "Eltwise"
  bottom: "addition_block4_106"
  bottom: "conv_block4_107_branch2c"
  top: "addition_block4_107"
}
layer {
  name: "bn_block4_108_branch2a"
  type: "BatchNorm"
  bottom: "addition_block4_107"
  top: "bn_block4_108_branch2a"
}
layer {
  name: "scale_block4_108_branch2a"
  type: "Scale"
  bottom: "bn_block4_108_branch2a"
  top: "bn_block4_108_branch2a"
  scale_param {
    bias_term: true
  }
}
layer {
  name: "relu_block4_108_branch2a"
  type: "ReLU"
  bottom: "bn_block4_108_branch2a"
  top: "bn_block4_108_branch2a"
}
layer {
  name: "conv_block4_108_branch2a"
  type: "Convolution"
  bottom: "bn_block4_108_branch2a"
  top: "conv_block4_108_branch2a"
  convolution_param {
    num_output: 64
    bias_term: false
    pad: 0
    kernel_size: 1
    stride: 1
  }
}
layer {
  name: "bn_block4_108_branch2b"
  type: "BatchNorm"
  bottom: "conv_block4_108_branch2a"
  top: "bn_block4_108_branch2b"
}
layer {
  name: "scale_block4_108_branch2b"
  type: "Scale"
  bottom: "bn_block4_108_branch2b"
  top: "bn_block4_108_branch2b"
  scale_param {
    bias_term: true
  }
}
layer {
  name: "relu_block4_108_branch2b"
  type: "ReLU"
  bottom: "bn_block4_108_branch2b"
  top: "bn_block4_108_branch2b"
}
layer {
  name: "conv_block4_108_branch2b"
  type: "Convolution"
  bottom: "bn_block4_108_branch2b"
  top: "conv_block4_108_branch2b"
  convolution_param {
    num_output: 64
    bias_term: false
    pad: 1
    kernel_size: 3
    stride: 1
  }
}
layer {
  name: "bn_block4_108_branch2c"
  type: "BatchNorm"
  bottom: "conv_block4_108_branch2b"
  top: "bn_block4_108_branch2c"
}
layer {
  name: "scale_block4_108_branch2c"
  type: "Scale"
  bottom: "bn_block4_108_branch2c"
  top: "bn_block4_108_branch2c"
  scale_param {
    bias_term: true
  }
}
layer {
  name: "relu_block4_108_branch2c"
  type: "ReLU"
  bottom: "bn_block4_108_branch2c"
  top: "bn_block4_108_branch2c"
}
layer {
  name: "conv_block4_108_branch2c"
  type: "Convolution"
  bottom: "bn_block4_108_branch2c"
  top: "conv_block4_108_branch2c"
  convolution_param {
    num_output: 256
    bias_term: false
    pad: 0
    kernel_size: 1
    stride: 1
  }
}
layer {
  name: "addition_block4_108"
  type: "Eltwise"
  bottom: "addition_block4_107"
  bottom: "conv_block4_108_branch2c"
  top: "addition_block4_108"
}
layer {
  name: "bn_block4_109_branch2a"
  type: "BatchNorm"
  bottom: "addition_block4_108"
  top: "bn_block4_109_branch2a"
}
layer {
  name: "scale_block4_109_branch2a"
  type: "Scale"
  bottom: "bn_block4_109_branch2a"
  top: "bn_block4_109_branch2a"
  scale_param {
    bias_term: true
  }
}
layer {
  name: "relu_block4_109_branch2a"
  type: "ReLU"
  bottom: "bn_block4_109_branch2a"
  top: "bn_block4_109_branch2a"
}
layer {
  name: "conv_block4_109_branch2a"
  type: "Convolution"
  bottom: "bn_block4_109_branch2a"
  top: "conv_block4_109_branch2a"
  convolution_param {
    num_output: 64
    bias_term: false
    pad: 0
    kernel_size: 1
    stride: 1
  }
}
layer {
  name: "bn_block4_109_branch2b"
  type: "BatchNorm"
  bottom: "conv_block4_109_branch2a"
  top: "bn_block4_109_branch2b"
}
layer {
  name: "scale_block4_109_branch2b"
  type: "Scale"
  bottom: "bn_block4_109_branch2b"
  top: "bn_block4_109_branch2b"
  scale_param {
    bias_term: true
  }
}
layer {
  name: "relu_block4_109_branch2b"
  type: "ReLU"
  bottom: "bn_block4_109_branch2b"
  top: "bn_block4_109_branch2b"
}
layer {
  name: "conv_block4_109_branch2b"
  type: "Convolution"
  bottom: "bn_block4_109_branch2b"
  top: "conv_block4_109_branch2b"
  convolution_param {
    num_output: 64
    bias_term: false
    pad: 1
    kernel_size: 3
    stride: 1
  }
}
layer {
  name: "bn_block4_109_branch2c"
  type: "BatchNorm"
  bottom: "conv_block4_109_branch2b"
  top: "bn_block4_109_branch2c"
}
layer {
  name: "scale_block4_109_branch2c"
  type: "Scale"
  bottom: "bn_block4_109_branch2c"
  top: "bn_block4_109_branch2c"
  scale_param {
    bias_term: true
  }
}
layer {
  name: "relu_block4_109_branch2c"
  type: "ReLU"
  bottom: "bn_block4_109_branch2c"
  top: "bn_block4_109_branch2c"
}
layer {
  name: "conv_block4_109_branch2c"
  type: "Convolution"
  bottom: "bn_block4_109_branch2c"
  top: "conv_block4_109_branch2c"
  convolution_param {
    num_output: 256
    bias_term: false
    pad: 0
    kernel_size: 1
    stride: 1
  }
}
layer {
  name: "addition_block4_109"
  type: "Eltwise"
  bottom: "addition_block4_108"
  bottom: "conv_block4_109_branch2c"
  top: "addition_block4_109"
}
layer {
  name: "bn_block4_110_branch2a"
  type: "BatchNorm"
  bottom: "addition_block4_109"
  top: "bn_block4_110_branch2a"
}
layer {
  name: "scale_block4_110_branch2a"
  type: "Scale"
  bottom: "bn_block4_110_branch2a"
  top: "bn_block4_110_branch2a"
  scale_param {
    bias_term: true
  }
}
layer {
  name: "relu_block4_110_branch2a"
  type: "ReLU"
  bottom: "bn_block4_110_branch2a"
  top: "bn_block4_110_branch2a"
}
layer {
  name: "conv_block4_110_branch2a"
  type: "Convolution"
  bottom: "bn_block4_110_branch2a"
  top: "conv_block4_110_branch2a"
  convolution_param {
    num_output: 64
    bias_term: false
    pad: 0
    kernel_size: 1
    stride: 1
  }
}
layer {
  name: "bn_block4_110_branch2b"
  type: "BatchNorm"
  bottom: "conv_block4_110_branch2a"
  top: "bn_block4_110_branch2b"
}
layer {
  name: "scale_block4_110_branch2b"
  type: "Scale"
  bottom: "bn_block4_110_branch2b"
  top: "bn_block4_110_branch2b"
  scale_param {
    bias_term: true
  }
}
layer {
  name: "relu_block4_110_branch2b"
  type: "ReLU"
  bottom: "bn_block4_110_branch2b"
  top: "bn_block4_110_branch2b"
}
layer {
  name: "conv_block4_110_branch2b"
  type: "Convolution"
  bottom: "bn_block4_110_branch2b"
  top: "conv_block4_110_branch2b"
  convolution_param {
    num_output: 64
    bias_term: false
    pad: 1
    kernel_size: 3
    stride: 1
  }
}
layer {
  name: "bn_block4_110_branch2c"
  type: "BatchNorm"
  bottom: "conv_block4_110_branch2b"
  top: "bn_block4_110_branch2c"
}
layer {
  name: "scale_block4_110_branch2c"
  type: "Scale"
  bottom: "bn_block4_110_branch2c"
  top: "bn_block4_110_branch2c"
  scale_param {
    bias_term: true
  }
}
layer {
  name: "relu_block4_110_branch2c"
  type: "ReLU"
  bottom: "bn_block4_110_branch2c"
  top: "bn_block4_110_branch2c"
}
layer {
  name: "conv_block4_110_branch2c"
  type: "Convolution"
  bottom: "bn_block4_110_branch2c"
  top: "conv_block4_110_branch2c"
  convolution_param {
    num_output: 256
    bias_term: false
    pad: 0
    kernel_size: 1
    stride: 1
  }
}
layer {
  name: "addition_block4_110"
  type: "Eltwise"
  bottom: "addition_block4_109"
  bottom: "conv_block4_110_branch2c"
  top: "addition_block4_110"
}
layer {
  name: "bn_block4_111_branch2a"
  type: "BatchNorm"
  bottom: "addition_block4_110"
  top: "bn_block4_111_branch2a"
}
layer {
  name: "scale_block4_111_branch2a"
  type: "Scale"
  bottom: "bn_block4_111_branch2a"
  top: "bn_block4_111_branch2a"
  scale_param {
    bias_term: true
  }
}
layer {
  name: "relu_block4_111_branch2a"
  type: "ReLU"
  bottom: "bn_block4_111_branch2a"
  top: "bn_block4_111_branch2a"
}
layer {
  name: "conv_block4_111_branch2a"
  type: "Convolution"
  bottom: "bn_block4_111_branch2a"
  top: "conv_block4_111_branch2a"
  convolution_param {
    num_output: 64
    bias_term: false
    pad: 0
    kernel_size: 1
    stride: 1
  }
}
layer {
  name: "bn_block4_111_branch2b"
  type: "BatchNorm"
  bottom: "conv_block4_111_branch2a"
  top: "bn_block4_111_branch2b"
}
layer {
  name: "scale_block4_111_branch2b"
  type: "Scale"
  bottom: "bn_block4_111_branch2b"
  top: "bn_block4_111_branch2b"
  scale_param {
    bias_term: true
  }
}
layer {
  name: "relu_block4_111_branch2b"
  type: "ReLU"
  bottom: "bn_block4_111_branch2b"
  top: "bn_block4_111_branch2b"
}
layer {
  name: "conv_block4_111_branch2b"
  type: "Convolution"
  bottom: "bn_block4_111_branch2b"
  top: "conv_block4_111_branch2b"
  convolution_param {
    num_output: 64
    bias_term: false
    pad: 1
    kernel_size: 3
    stride: 1
  }
}
layer {
  name: "bn_block4_111_branch2c"
  type: "BatchNorm"
  bottom: "conv_block4_111_branch2b"
  top: "bn_block4_111_branch2c"
}
layer {
  name: "scale_block4_111_branch2c"
  type: "Scale"
  bottom: "bn_block4_111_branch2c"
  top: "bn_block4_111_branch2c"
  scale_param {
    bias_term: true
  }
}
layer {
  name: "relu_block4_111_branch2c"
  type: "ReLU"
  bottom: "bn_block4_111_branch2c"
  top: "bn_block4_111_branch2c"
}
layer {
  name: "conv_block4_111_branch2c"
  type: "Convolution"
  bottom: "bn_block4_111_branch2c"
  top: "conv_block4_111_branch2c"
  convolution_param {
    num_output: 256
    bias_term: false
    pad: 0
    kernel_size: 1
    stride: 1
  }
}
layer {
  name: "addition_block4_111"
  type: "Eltwise"
  bottom: "addition_block4_110"
  bottom: "conv_block4_111_branch2c"
  top: "addition_block4_111"
}
layer {
  name: "bn5"
  type: "BatchNorm"
  bottom: "addition_block4_111"
  top: "bn5"
}
layer {
  name: "scale5"
  type: "Scale"
  bottom: "bn5"
  top: "bn5"
  scale_param {
    bias_term: true
  }
}
layer {
  name: "relu5"
  type: "ReLU"
  bottom: "bn5"
  top: "bn5"
}
layer {
  name: "pool5"
  type: "Pooling"
  bottom: "bn5"
  top: "pool5"
  pooling_param {
    pool: AVE
    kernel_size: 8
    stride: 1
  }
}
layer {
  name: "fc6"
  type: "InnerProduct"
  bottom: "pool5"
  top: "fc6"
  inner_product_param {
    num_output: 10
  }
}
layer {
  name: "prob"
  type: "Softmax"
  bottom: "fc6"
  top: "prob"
}
